output/balanced_ffn/balanced_ffn_model.pt (torch, 156154 bytes, 20 tensors)

model.0.weight f4 [128, 9]
0	0xbed26845	-0.41095176
1	0xbf55ce65	-0.8351806
2	0x3ef7060f	0.4824681
3	0xbeb9aee7	-0.36266252
4	0x3f390738	0.7227664
5	0x3df6f0d0	0.1205765
6	0x3f222aad	0.6334637
7	0xbe602d49	-0.21892275
8	0xbca9b2f7	-0.02071522
9	0xbecffeb5	-0.40624014
10	0x3ea8826a	0.32911998
11	0xbe306838	-0.17227256
12	0xbe734b04	-0.23759085
13	0xbf25109e	-0.6447848
14	0x3ef09ecc	0.46996152
15	0xbfd22d46	-1.6420066
16	0xbec709e8	-0.38874745
17	0x3e4ae0fb	0.19812386
18	0x3ed3d35f	0.413722
19	0xbf670edf	-0.90257066
20	0xbf8e8eff	-1.1137389
21	0x3c0f551b	0.008748318
22	0xbf58f170	-0.84743404
23	0xbedac627	-0.42729303
24	0x3e6636bb	0.22481816
25	0x3e689a79	0.22715177
26	0x3e936838	0.2879045
27	0x3e5ca75d	0.21548219
28	0xbf4f055a	-0.8086754
29	0x3eca57ed	0.39520207
30	0x3d180f8b	0.037124198
31	0x3f5958b8	0.84901
32	0xbf5789b3	-0.8419449
33	0xbca3ba34	-0.01998625
34	0x3a1589bf	0.00057044247
35	0x3d950d50	0.0727793
36	0x3e6f1514	0.23347884
37	0xbea0c787	-0.31402227
38	0xbc99b7d3	-0.018764412
39	0xbe89a52e	-0.26883835
40	0xbf194bb1	-0.5988112
41	0xbf03deb7	-0.5151171
42	0x3ea322cd	0.31862488
43	0xbf55f44b	-0.83575886
44	0xbf188e5c	-0.59592223
45	0x3d333c01	0.043758396
46	0x3f3d3c87	0.7392048
47	0x3a47dec6	0.00076244434
48	0x3e2a6f5c	0.16644043
49	0xbec0c440	-0.37649727
50	0xbd12d96c	-0.03585188
51	0xbe15daee	-0.14634296
52	0x3c5bd326	0.013417041
53	0x3e6d3ecd	0.23168488
54	0xbd43fc97	-0.04784831
55	0xbf412f35	-0.7546266
56	0xbe871b23	-0.2638789
57	0x3eb52f8a	0.35387832
58	0xbeb6e68c	-0.35722768
59	0xbe50bbe6	-0.20384178
60	0x3eb9b1ea	0.3626855
61	0xbe6c0eb5	-0.23052485
62	0xbeedf21b	-0.46473774
63	0xbee63cf8	-0.4496839
64	0xbb5821f3	-0.003297922
65	0xbe9e9d3c	-0.30979335
66	0xbcb5383f	-0.022121547
67	0xbd3c036c	-0.0459017
68	0x3decda25	0.11565045
69	0x3f4828ff	0.78187555
70	0x3b024f5c	0.0019883728
71	0x3dc24fba	0.09487863
72	0xbeb485d7	-0.35258362
73	0x3c05bd50	0.008162811
74	0xbf7c4c8d	-0.9855431
75	0x3ebef5c0	0.37296867
76	0xbe1bd6bd	-0.15218635
77	0x3eda9b12	0.42696434
78	0xbf1c2b81	-0.6100388
79	0x3e844685	0.25835052
80	0xbf8336d1	-1.0251104
81	0xbcc69f5b	-0.024245908
82	0xbf1f3d05	-0.62202483
83	0x3eac3064	0.3363067
84	0xbe4cddeb	-0.2000653
85	0x3f23151b	0.6370408
86	0xbecc1284	-0.39857876
87	0x3e8e9616	0.2784888
88	0x3e8f781b	0.2802132
89	0xbd8f21b2	-0.06988849
90	0x3ed7613e	0.42066377
91	0x3f2f2ff5	0.6843255
92	0x3e3d1997	0.18466793
93	0xbeba3488	-0.36368203
94	0xbd884de9	-0.06655485
95	0xbce86892	-0.028370176
96	0xbed58691	-0.4170423
97	0x3f9048fc	1.1272273
98	0x3f311994	0.69179654
99	0xbd0c3644	-0.03423144
100	0x3f1485db	0.5801675
101	0x3ee73871	0.4516025
102	0x3e0cb70b	0.137417
103	0x3f2eb055	0.6823781
104	0xbefac0d0	-0.4897523
105	0x3e7fce81	0.24981119
106	0x3ed60287	0.41798803
107	0x3ea56ddb	0.32310376
108	0x3bd9a557	0.0066420245
109	0xbdc3d136	-0.09561388
110	0x3d5701ae	0.052491836
111	0x3efc0325	0.4922115
112	0xbe6ae896	-0.22940287
113	0x3e04af1f	0.12957428
114	0x3e18dcb6	0.14927945
115	0x3f20f62a	0.62875617
116	0x3e22be06	0.158928
117	0x3e75d8d5	0.24008496
118	0xbd06b568	-0.032887846
119	0xbe9194fe	-0.28433985
120	0x3eff69a7	0.49885294
121	0x3e860455	0.2617518
122	0x3e292cc9	0.1652099
123	0x3e9eb3ee	0.3099665
124	0x3eb8f803	0.36126718
125	0x3e9ab20f	0.30213973
126	0x3e998b5c	0.29989135
127	0x3f0e1983	0.5550768
128	0x3ef1064d	0.4707512
129	0x3f177ef2	0.5917808
130	0x3f3444ca	0.70417464
131	0xbf181fb4	-0.59423375
132	0xbf7166ee	-0.94297683
133	0x3d266a78	0.04062888
134	0xbf1a6e87	-0.603249
135	0xbed01fb1	-0.4064918
136	0xbee42b19	-0.4456413
137	0x3e89a847	0.26886198
138	0xbf0c1b33	-0.54729
139	0x3e6d3c01	0.23167421
140	0x3f09dc56	0.5385183
141	0xbf5af182	-0.8552476
142	0xbf06e081	-0.52686316
143	0x3f21b5de	0.6316813
144	0xbd23e809	-0.040016208
145	0x3f382e5d	0.71945745
146	0xbd9a5d41	-0.07537318
147	0x3e8493c2	0.2589398
148	0x3e0cf148	0.13763916
149	0xbccb034e	-0.02478185
150	0x3ebd9c79	0.37033442
151	0x3eba708a	0.36413985
152	0xbbd8677a	-0.0066041322
153	0xbcf6560b	-0.030070325
154	0x3ef52808	0.47882104
155	0x3e82a88b	0.25519213
156	0x3dbe53c0	0.09293318
157	0x3dea6f16	0.11446969
158	0xbf8ae5d5	-1.0851389
159	0xbe9e21d2	-0.30885178
160	0xbd5b5352	-0.053546257
161	0x3e3c1ff5	0.18371566
162	0x3bb5f8b1	0.005553328
163	0x3f603e99	0.87595516
164	0xbe7e51e4	-0.24835926
165	0xbdd86937	-0.10566943
166	0xbf00f915	-0.5038007
167	0x3d8be7b1	0.06831301
168	0xbe3ce094	-0.18445045
169	0x3ee30a90	0.44343996
170	0x3f5500de	0.8320445
171	0xbf024258	-0.5088248
172	0xbe5a6b98	-0.21330106
173	0xbd0e0db7	-0.03468105
174	0x3e1cce6f	0.15313123
175	0xbe8e4a08	-0.27790856
176	0x3eb6255b	0.35575375
177	0xbee846b1	-0.45366433
178	0xbe8b06ae	-0.27153534
179	0x3d5ec8f5	0.054390866
180	0xbd943d86	-0.07238297
181	0x3dc0438a	0.09387882
182	0x3f626b71	0.8844519
183	0x3f92a625	1.1456953
184	0xbf2632ea	-0.6492144
185	0x3d9e8796	0.07740705
186	0xbed521b7	-0.41627285
187	0xbee1bf12	-0.44091088
188	0xbf4a08e9	-0.78919846
189	0xbedd50fe	-0.43225855
190	0xbdd952ce	-0.10611497
191	0xbe3131e9	-0.17304195
192	0xbceea0f3	-0.029129481
193	0x3daefbca	0.08544119
194	0xbe66f64b	-0.22554891
195	0x3e9462ca	0.2898162
196	0xbd4000f7	-0.04687592
197	0xbf2a8f85	-0.66625243
198	0xbf3ddae4	-0.74162126
199	0xbf0cffc5	-0.55077773
200	0x3e9215bd	0.2853221
201	0x3dda619d	0.106631495
202	0x3fb92aab	1.4466146
203	0xbf18d4e5	-0.5969985
204	0x3c2206b5	0.009889294
205	0xbdd03605	-0.101665534
206	0xbf00b809	-0.50280815
207	0x3ea11e03	0.3146821
208	0xbea5b687	-0.3236582
209	0x3e68b59f	0.22725533
210	0x3e87502a	0.26428348
211	0x3f26b6ed	0.6512287
212	0xbea15551	-0.31510404
213	0xbd2e3db4	-0.042539313
214	0x3ef7d2f7	0.4840314
215	0x3e40e296	0.18836436
216	0x3ea969d4	0.33088553
217	0xbedc8e29	-0.4307721
218	0x3e1122e9	0.14173473
219	0xbf1bd4f4	-0.60871816
220	0xbe8b9726	-0.27263755
221	0xbf252806	-0.64514196
222	0x3e91e8ff	0.28498074
223	0xbea19ef1	-0.31566575
224	0xbde9a3d8	-0.11408204
225	0x3ec94ff8	0.39318824
226	0x3ca911e7	0.02063842
227	0xbeaff1a9	-0.3436406
228	0x3f5883bc	0.8457601
229	0xbf303274	-0.68826985
230	0x3d924190	0.07141411
231	0x3f711444	0.9417155
232	0xbef40fd0	-0.47668314
233	0x3ed0c544	0.40775502
234	0x3e87e702	0.26543432
235	0xbd252e7c	-0.040327534
236	0xbd48991a	-0.048974134
237	0xbe4ce3bf	-0.20008753
238	0xbe8b187b	-0.27167115
239	0x3e9203ed	0.2851862
240	0x3e03b00a	0.12860122
241	0x3e672275	0.22571738
242	0xbf915805	-1.1354986
243	0xbee87274	-0.4539982
244	0xbf012b4f	-0.5045671
245	0xbec9ebf3	-0.39437827
246	0x3e22cc9b	0.15898363
247	0x3e980940	0.29694557
248	0xbd94b30b	-0.07260712
249	0x3ea709ba	0.32624608
250	0xbe868f04	-0.26280987
251	0x3f4cc7ce	0.7999238
252	0xbf1b8928	-0.6075616
253	0xbbdb6da4	-0.00669642
254	0x3e07fd24	0.13280159
255	0xbcb1e5f4	-0.021716096

model.0.bias f4 [128]
0	0xb6f923bf	-7.4249397e-06
1	0x357fbd76	9.5270605e-07
2	0x36984840	4.538364e-06
3	0x359200fb	1.0878133e-06
4	0x3633934f	2.6758823e-06
5	0xb6093a18	-2.0448406e-06
6	0xb65631fb	-3.1917577e-06
7	0xb70c17d8	-8.350202e-06
8	0x36271f39	2.4903113e-06
9	0x36d937a6	6.4735823e-06
10	0x3705ecbd	7.982538e-06
11	0x36d217d8	6.2612635e-06
12	0x36927570	4.3648106e-06
13	0xb6cb642b	-6.0615325e-06
14	0xb41fe8f2	-1.4892774e-07
15	0x36ed6371	7.074727e-06
16	0xb6e0475c	-6.6840275e-06
17	0x3610d083	2.1579042e-06
18	0x3413f6dc	1.3780249e-07
19	0x3655a92b	3.1837942e-06
20	0xb52af76a	-6.368997e-07
21	0xb624c4d7	-2.455248e-06
22	0xb493221c	-2.7405702e-07
23	0xb730993b	-1.0526094e-05
24	0x371b5d1a	9.260397e-06
25	0xb697f4ea	-4.5286624e-06
26	0xb5e498b0	-1.7031762e-06
27	0xb6d11f78	-6.232349e-06
28	0xb6b71c00	-5.4570846e-06
29	0x3688bbb2	4.0749665e-06
30	0xb7833450	-1.5640777e-05
31	0x37a04142	1.9103874e-05
32	0x36f39aa7	7.2599682e-06
33	0xb6d4d9b5	-6.343437e-06
34	0x37493f07	1.1995208e-05
35	0xb4c31bac	-3.6341714e-07
36	0x369b9326	4.6364903e-06
37	0xb6bdcaa0	-5.6562276e-06
38	0xb79c5bd9	-1.8639419e-05
39	0xb651ae19	-3.1244765e-06
40	0xb630fdb2	-2.6373714e-06
41	0x36a4b025	4.908087e-06
42	0x36fd92f1	7.557094e-06
43	0x36f5981c	7.319277e-06
44	0xb66c0113	-3.5167366e-06
45	0xb7f47cfc	-2.9145267e-05
46	0x350d2b86	5.258993e-07
47	0xb6b5e310	-5.420654e-06
48	0x366a0214	3.4869927e-06
49	0xb7eb5b54	-2.8056711e-05
50	0xb70e8d53	-8.496764e-06
51	0x3407ec98	1.2658927e-07
52	0xb526778c	-6.201378e-07
53	0xb6681c22	-3.458707e-06
54	0x371aff88	9.238611e-06
55	0x36576b68	3.2100015e-06
56	0xb6309c5a	-2.6317052e-06
57	0x36d6cdd8	6.4016604e-06
58	0x36f24416	7.2200883e-06
59	0xb72c5ec5	-1.0274064e-05
60	0x3718b5b9	9.102217e-06
61	0xb69b831d	-4.6346236e-06
62	0xb710c385	-8.628592e-06
63	0xb7137996	-8.790192e-06
64	0x36934a28	4.3895743e-06
65	0x3710ee58	8.638563e-06
66	0x365ce073	3.2913201e-06
67	0x377f45f0	1.5215468e-05
68	0x3607f05d	2.0256477e-06
69	0x3525d680	6.177943e-07
70	0x36a9f194	5.064716e-06
71	0x35bc337c	1.4022075e-06
72	0x3748aea8	1.1961594e-05
73	0xb6ae7efc	-5.200387e-06
74	0x357574c0	9.1439506e-07
75	0xb5d27742	-1.5680928e-06
76	0x360e0838	2.1164433e-06
77	0xb7a9a460	-2.0222913e-05
78	0x3690c1a4	4.314077e-06
79	0xb643810c	-2.913238e-06
80	0x3591e0d2	1.0868773e-06
81	0xb6cae2cd	-6.046472e-06
82	0x36aeeeca	5.213403e-06
83	0x32395240	1.0787119e-08
84	0x36dc3723	6.5629297e-06
85	0xb73467d5	-1.0753011e-05
86	0xb73fd2cf	-1.143357e-05
87	0x3717c592	9.046302e-06
88	0x3518600b	5.6764173e-07
89	0x362b5c3f	2.553468e-06
90	0xb6546004	-3.164635e-06
91	0x35b937cc	1.3799813e-06
92	0xb5a2ea6b	-1.2138165e-06
93	0xb6bdd481	-5.6573776e-06
94	0x3628cc95	2.5153033e-06
95	0x36cc731e	6.093075e-06
96	0x3606fd00	2.0114821e-06
97	0x35aa05ca	1.2667672e-06
98	0xb7a9ebf9	-2.0256253e-05
99	0x33c2d560	9.072642e-08
100	0x34acd30c	3.2191053e-07
101	0xb613e5af	-2.20384e-06
102	0xb74b16e7	-1.2105075e-05
103	0x35da914e	1.6284555e-06
104	0x35820896	9.688254e-07
105	0xb7aca216	-2.0579475e-05
106	0xb4ae0e76	-3.2420547e-07
107	0xb711fcc4	-8.701525e-06
108	0xb4e06590	-4.1797148e-07
109	0x37040fbd	7.8714775e-06
110	0xb426b5b6	-1.5526061e-07
111	0xb59c4bd2	-1.1644972e-06
112	0xb6926018	-4.362326e-06
113	0xb69ecb8c	-4.732463e-06
114	0x371347d9	8.778611e-06
115	0xb57e8ed4	-9.4830216e-07
116	0x375b5ca5	1.3074988e-05
117	0x372675f0	9.9218305e-06
118	0x35df1018	1.6619479e-06
119	0x35f5458a	1.8274161e-06
120	0xb32bf260	-4.003448e-08
121	0xb4b06649	-3.2856977e-07
122	0x36a64924	4.9557e-06
123	0x3705b92f	7.970534e-06
124	0x355a504c	8.1328176e-07
125	0x35449f30	7.324734e-07
126	0x35456350	7.353274e-07
127	0x33e529a0	1.0671215e-07

model.1.weight f4 [128]
0	0x3f75f198	0.9607177
1	0x3f788496	0.9707731
2	0x3f74463b	0.95419663
3	0x3f7cba85	0.98722106
4	0x3f7c1ae9	0.9847856
5	0x3f797981	0.97451025
6	0x3f6d6ac2	0.92741024
7	0x3f8109a9	1.0081073
8	0x3f81315f	1.0093192
9	0x3f803df0	1.0018902
10	0x3f7823b7	0.96929497
11	0x3f89ef26	1.0776107
12	0x3f814dc7	1.0101861
13	0x3f8c88cb	1.0979246
14	0x3f7e0241	0.9922219
15	0x3f80d279	1.0064231
16	0x3f7eac5b	0.99481744
17	0x3f86f7cc	1.0544372
18	0x3f76d55a	0.964193
19	0x3f7e44f5	0.9932397
20	0x3f7a9380	0.9788132
21	0x3f7c77ab	0.986201
22	0x3f752270	0.9575567
23	0x3f869cc4	1.0516591
24	0x3f7d9936	0.99061906
25	0x3f7bdbd9	0.98382336
26	0x3f84099d	1.0315434
27	0x3f80e4f0	1.0069866
28	0x3f61d6db	0.8821847
29	0x3f824eeb	1.0180334
30	0x3f809cbc	1.0047832
31	0x3f870130	1.0547237
32	0x3f74575a	0.9544579
33	0x3f7c1123	0.9846365
34	0x3f84bac8	1.0369501
35	0x3f72ecc1	0.9489251
36	0x3f745292	0.9543849
37	0x3f7c1223	0.98465174
38	0x3f7b3e42	0.9814187
39	0x3f80491d	1.0022312
40	0x3f8402c8	1.0313349
41	0x3f75c30f	0.9600076
42	0x3f80e9f5	1.0071398
43	0x3f855311	1.0415975
44	0x3f7867cb	0.97033376
45	0x3f881794	1.0632195
46	0x3f7d68a6	0.98987806
47	0x3f7d7b7c	0.9901655
48	0x3f817fe8	1.0117159
49	0x3f8f69a1	1.120411
50	0x3f7d0be2	0.98846257
51	0x3f787170	0.9704809
52	0x3f736958	0.95082617
53	0x3f7c0997	0.9845213
54	0x3f7fd877	0.99939674
55	0x3f82731c	1.0191379
56	0x3f818e8f	1.012163
57	0x3f83bb23	1.0291485
58	0x3f80ad9b	1.005298
59	0x3f7854fb	0.9700467
60	0x3f8608e7	1.0471467
61	0x3f75fa6d	0.96085244
62	0x3f82d5a8	1.0221453
63	0x3f7bde8b	0.9838645
64	0x3f7e006e	0.99219406
65	0x3f867429	1.0504199
66	0x3f76ff1d	0.9648302
67	0x3f87c7c0	1.0607834
68	0x3f825c23	1.0184368
69	0x3f6f6bcd	0.93523866
70	0x3f6cb958	0.9247031
71	0x3f71a53b	0.94392747
72	0x3f711de6	0.94186246
73	0x3f7c777d	0.98619825
74	0x3f68fb36	0.9100832
75	0x3f7d23d0	0.9888277
76	0x3f7b1410	0.9807749
77	0x3f82248f	1.0167407
78	0x3f737397	0.9509825
79	0x3f7ca334	0.9868653
80	0x3f76f6b1	0.9647017
81	0x3f81bb1f	1.013523
82	0x3f83105b	1.0239366
83	0x3f6dc1f6	0.92874086
84	0x3f7da0b1	0.9907332
85	0x3f78f8a2	0.97254384
86	0x3f73d654	0.95248914
87	0x3f818cdb	1.0121111
88	0x3f84ef4b	1.0385526
89	0x3f6df49a	0.9295136
90	0x3f80f7cb	1.007562
91	0x3f6efb85	0.9335254
92	0x3f833fae	1.0253808
93	0x3f749c6d	0.95551187
94	0x3f7c055f	0.98445696
95	0x3f71cd71	0.94454104
96	0x3f82c414	1.0216088
97	0x3f855881	1.0417634
98	0x3f89bd6a	1.076093
99	0x3f6f1529	0.9339166
100	0x3f76d66e	0.96420944
101	0x3f6f8cb2	0.9357406
102	0x3f8a5ee9	1.0810214
103	0x3f704721	0.93858534
104	0x3f789b94	0.97112393
105	0x3f83ba20	1.0291176
106	0x3f801691	1.0006887
107	0x3f82f0ae	1.02297
108	0x3f7f580d	0.9974373
109	0x3f758faf	0.9592237
110	0x3f717362	0.94316685
111	0x3f75156c	0.9573581
112	0x3f7e5fef	0.99365133
113	0x3f83dd35	1.0301882
114	0x3f771e76	0.96530855
115	0x3f7a01fa	0.97659266
116	0x3f81c17e	1.0137174
117	0x3f84c931	1.0373899
118	0x3f8250c8	1.0180902
119	0x3f729f1e	0.94774044
120	0x3f75bd52	0.95992005
121	0x3f810827	1.0080613
122	0x3f856d28	1.0423937
123	0x3f7cb861	0.9871884
124	0x3f80da1f	1.0066565
125	0x3f80c28a	1.0059369
126	0x3f81a80b	1.0129408
127	0x3f8a8a22	1.0823405

model.1.bias f4 [128]
0	0xbc3ffb76	-0.011717668
1	0xbcad39f8	-0.021145806
2	0xbd4f966a	-0.050680555
3	0x3ca1de4b	0.019759318
4	0x3b91c498	0.0044484846
5	0xbd53ffbd	-0.051757563
6	0xbd055567	-0.03255215
7	0xbd16881d	-0.0367509
8	0xbb8e713d	-0.004346995
9	0xbca6c49c	-0.020357423
10	0xbc86084e	-0.016361382
11	0x3c7a85dc	0.015290704
12	0x3d21bcfc	0.03948687
13	0x3dcb6135	0.0993065
14	0xbd8131b6	-0.0630831
15	0xbb5ec2d6	-0.0033990643
16	0xbd8d9f9c	-0.06915209
17	0xbbde2a02	-0.00677991
18	0xbcb5ace9	-0.022177177
19	0x3be2a1f3	0.0069162785
20	0xbd1c9895	-0.03823145
21	0x3d101224	0.03517355
22	0xbcb574c4	-0.022150405
23	0xbc5a880f	-0.013338103
24	0xbc8cd8ec	-0.01719328
25	0xbc877f53	-0.016540205
26	0x3d4933c2	0.049121626
27	0x3d1f5317	0.0388976
28	0xbdbad73c	-0.09123084
29	0x3caacc9b	0.020849517
30	0xbac0a24c	-0.0014696806
31	0x3ac0f656	0.0014721851
32	0xbb90e81c	-0.004422201
33	0xbd0bb21b	-0.0341054
34	0xbc2c3943	-0.010511699
35	0xbd42f825	-0.04759993
36	0xbb88499d	-0.004159166
37	0x3bb8373e	0.0056218198
38	0x3ca8e1f3	0.020615553
39	0xbd0a8893	-0.033821654
40	0x3c26ad30	0.010173127
41	0xbd3b9ee5	-0.04580583
42	0x3d1ad0a6	0.03779664
43	0x3d3dfcca	0.046383657
44	0xbc026aba	-0.007960016
45	0x3b4188cc	0.0029531
46	0xbc96d100	-0.018410206
47	0xbc8129e8	-0.015767053
48	0x3d815ab9	0.06316132
49	0x3d7182be	0.058962576
50	0xbc173a72	-0.009230243
51	0xbd02da48	-0.03194645
52	0xbd0f128f	-0.03492981
53	0xba36d710	-0.0006974796
54	0xbc10b489	-0.008832105
55	0x3d047fc4	0.03234841
56	0x3cb96ee2	0.02263588
57	0x3b87ae05	0.004140618
58	0xbb933c50	-0.004493274
59	0xbc89efb6	-0.016837936
60	0x3cbd2e19	0.02309327
61	0xbd53af62	-0.05168093
62	0x3c914c62	0.017736617
63	0xbd42ba56	-0.047540985
64	0xbccf6804	-0.025318153
65	0xbc0e9bd3	-0.008704144
66	0xbd5d272f	-0.053992447
67	0x3d8081f0	0.062747836
68	0xbcec2cf5	-0.028830031
69	0xbd1d409b	-0.03839169
70	0x3c4d88f2	0.012544857
71	0xbd91d2d2	-0.07120289
72	0xbd5c29e6	-0.053750895
73	0xbced14cd	-0.028940583
74	0xbda78868	-0.08180314
75	0xbce26e8d	-0.027640605
76	0xbc66ff51	-0.014098958
77	0xbd00b7a4	-0.031425133
78	0xbcc6e84e	-0.024280693
79	0xbd0ffba7	-0.035152104
80	0xbda9e353	-0.08295312
81	0x3c168a0b	0.009188185
82	0xbab62798	-0.0013897298
83	0xbdbbf2eb	-0.09177192
84	0xbd2c36c1	-0.042044405
85	0xbc902866	-0.017597388
86	0xbcfb5e4f	-0.030684618
87	0xbc72b981	-0.014814735
88	0xbcbf00e9	-0.023315864
89	0xbd583982	-0.05278922
90	0xbcfedc6f	-0.03111097
91	0xbcb0dad8	-0.021588728
92	0x3d7d9c58	0.06191668
93	0xbd28f43e	-0.041248553
94	0x3be7a1cd	0.0070688487
95	0xbd148e74	-0.036268666
96	0x3d14fa0a	0.03637127
97	0x3ba1aa8e	0.004933662
98	0xba5614ce	-0.0008166552
99	0xbd5ef6ba	-0.054434516
100	0xbd8905f7	-0.06690591
101	0xbdb0f4b6	-0.08640425
102	0x3d851cd5	0.0649964
103	0xbc261e77	-0.010139099
104	0xbcdaab3e	-0.026692983
105	0xbc91e060	-0.017807186
106	0x3c34a430	0.0110254735
107	0x3c5975ff	0.013272761
108	0x3ca04e32	0.019568536
109	0xbc9b0e56	-0.018927734
110	0xbd4a9f6b	-0.04946844
111	0xbd32f1f0	-0.04368776
112	0x3d1842da	0.03717313
113	0x3d0b54fd	0.034016598
114	0xbd7fbd34	-0.062436298
115	0x3b9f1139	0.004854348
116	0xbbe00333	-0.006836319
117	0x3d14b472	0.0363049
118	0xbc84a432	-0.016191576
119	0xbca02682	-0.019549612
120	0xbd0036bd	-0.031302202
121	0xbd2a2a0b	-0.041544
122	0x3c6c12bc	0.0144087635
123	0xbd0b4ceb	-0.0340089
124	0xbc93d9e9	-0.018048244
125	0x3c935354	0.01798407
126	0x3d4b60da	0.04965291
127	0x3d1aee77	0.037825074

model.1.running_mean f4 [128]
0	0x3cbeebad	0.023305738
1	0xbcaae619	-0.020861672
2	0x3df83dab	0.12121137
3	0x3d297d4a	0.04137925
4	0x3ca99c10	0.0207043
5	0xbcaaa130	-0.020828813
6	0x3cf4811f	0.029846726
7	0x3cc1245b	0.023576906
8	0xbd50b2d5	-0.050951798
9	0x3c3c92b0	0.011509582
10	0xbce216a4	-0.027598687
11	0xbcde61d8	-0.027146265
12	0xbc282a6f	-0.010264023
13	0x3cd9fb17	0.026608987
14	0xbdb2de74	-0.08733836
15	0x3d1aae12	0.037763663
16	0xbd12f4e0	-0.035878062
17	0xbbb84cb8	-0.00562438
18	0x3c039583	0.008031252
19	0x3a5eb4c3	0.00084955635
20	0xbdc9852f	-0.09839856
21	0xbcd5cf10	-0.026099712
22	0xbc899566	-0.016794872
23	0x3c29d162	0.010364862
24	0x3d1d6fe9	0.038436804
25	0x3d8f7587	0.070048384
26	0xbd97bc3f	-0.07408952
27	0x3dcbbae8	0.09947759
28	0xbd82cc39	-0.06386609
29	0xbcdc7120	-0.026909411
30	0x3cab8077	0.02093528
31	0xbc9c09df	-0.019047676
32	0x3c930c59	0.017950224
33	0xbbcd634d	-0.006267941
34	0xbd368445	-0.044559736
35	0xbc234b82	-0.009966733
36	0xbd93f400	-0.07224274
37	0xbcac1139	-0.021004306
38	0x3bdcfbf4	0.0067439023
39	0xbb15d123	-0.002286025
40	0xbcbc5442	-0.022989396
41	0xbd1d402f	-0.03839129
42	0xbd5b46e0	-0.05353439
43	0xbd4de6df	-0.050269004
44	0x3cb3eb79	0.021962868
45	0xbb3882da	-0.0028154165
46	0x3c4efc70	0.012633428
47	0x3df0bc0f	0.11754619
48	0xbcf2b1e5	-0.029625842
49	0xbcda35cc	-0.02663698
50	0xbb0580dd	-0.0020370998
51	0xbcd5f14d	-0.026116038
52	0x3d6946f5	0.056952436
53	0xbd85794a	-0.06517275
54	0x3d288869	0.041145716
55	0x3bd4c270	0.0064929053
56	0xbcb7ea51	-0.022450598
57	0xbdcafc23	-0.099113725
58	0xbcb94665	-0.022616575
59	0x3c00e791	0.00786771
60	0xbdef6691	-0.11689485
61	0x394b8830	0.00019410322
62	0xbc6d00f7	-0.014465562
63	0x3d133f0c	0.035948798
64	0x3cb4307c	0.021995775
65	0x3c8a4338	0.016877756
66	0x3cd04bdc	0.025426798
67	0xbcccfb23	-0.025022095
68	0x3bd1c525	0.0064016753
69	0x3cac8456	0.021059196
70	0xbd85624a	-0.06512888
71	0xbc09f9b2	-0.008421348
72	0x3b1a08fa	0.0023503886
73	0xbb8c361f	-0.0042789127
74	0x3d3ce11b	0.046113115
75	0x3c9074e9	0.017633872
76	0xbd653437	-0.055958
77	0xbcd65a4d	-0.026166106
78	0x3cfcb19f	0.030846415
79	0x3d9004cc	0.07032165
80	0xbce0b300	-0.027429104
81	0x3c9a8ff9	0.01886748
82	0xbd4a7810	-0.049430907
83	0x3cc2e68a	0.02379157
84	0x3d5e53a0	0.05427897
85	0xbc8ffc7e	-0.017576452
86	0x3d202e34	0.039106563
87	0x3d60a2ed	0.054842878
88	0xbd77e42b	-0.060520332
89	0x3cb64df4	0.022253968
90	0x3cbcb42c	0.023035131
91	0xbda25f25	-0.07928304
92	0x3c3cf1f8	0.011532299
93	0x3d2c506d	0.042068888
94	0x3d89d7a5	0.06730584
95	0xbd08942a	-0.033344425
96	0xbcd9af26	-0.026572775
97	0x3da15471	0.07877434
98	0x3a1f12d9	0.0006068177
99	0xbc349fa5	-0.01102439
100	0x3ad709e5	0.0016406147
101	0xbca0384f	-0.0195581
102	0xbc8a1382	-0.016855005
103	0x3d521a42	0.051294573
104	0x3c79b60f	0.01524116
105	0x3d828057	0.06372135
106	0xbd9dbfa2	-0.07702567
107	0xbd4a6da1	-0.049420957
108	0xbd26d141	-0.040726904
109	0x3bd2803b	0.0064239777
110	0x3d95c58e	0.07313071
111	0x3d155afa	0.036463715
112	0xbd36e78f	-0.044654425
113	0x3c5287e4	0.012849782
114	0x3bf0fa97	0.0073540914
115	0x3d7f41d0	0.062318623
116	0xbb1e7945	-0.002418117
117	0x3cc30a28	0.023808554
118	0x3dffdc2e	0.12493168
119	0xbce41d44	-0.027845986
120	0xbc417c05	-0.011809354
121	0xbd961d9d	-0.07329867
122	0x3c710f67	0.014713145
123	0xbd12968f	-0.035788115
124	0x3cecbf33	0.028899765
125	0xbcdbb258	-0.02681844
126	0xbc816335	-0.015794376
127	0x3b9c9bb2	0.0047793025

model.1.running_var f4 [128]
0	0x40005d45	2.0056927
1	0x404801fb	3.1251209
2	0x406b8c6f	3.6804464
3	0x3fce2002	1.6103518
4	0x3faada9e	1.3347967
5	0x3f43da3f	0.7650489
6	0x3f87bc47	1.0604333
7	0x3f92c140	1.1465225
8	0x400be5c4	2.1858988
9	0x3f65dec7	0.89793056
10	0x40219f2d	2.5253403
11	0x3f4fdb48	0.8119397
12	0x3ee4e675	0.44707075
13	0x3eb73a68	0.35786748
14	0x4088ceea	4.275258
15	0x40053c04	2.081788
16	0x3ef0604f	0.46948478
17	0x3fccdc5b	1.6004747
18	0x3fea709a	1.8315613
19	0x3f289df5	0.65866023
20	0x40a58edb	5.1736884
21	0x3f1963dd	0.59918004
22	0x4073198f	3.798435
23	0x3f52834c	0.82231593
24	0x3f9e81c9	1.2383357
25	0x401fd816	2.4975638
26	0x3fe74113	1.8066734
27	0x40202c00	2.5026855
28	0x3f9158e7	1.1355256
29	0x401f9f03	2.4940803
30	0x3f1c1cb8	0.6098132
31	0x3f94ac41	1.1615068
32	0x3fad62a4	1.3545728
33	0x3fe886cc	1.8166137
34	0x3faf61e5	1.370175
35	0x3fec5df5	1.8466173
36	0x4050a290	3.259922
37	0x40499595	3.1497548
38	0x3f87439d	1.0567509
39	0x3f7a64ac	0.97809863
40	0x3ff46b94	1.909533
41	0x3fcd64e6	1.6046417
42	0x3f97b749	1.1852809
43	0x3feb857b	1.840011
44	0x40457a35	3.085584
45	0x3e9a6810	0.30157518
46	0x3f4577d2	0.77135956
47	0x40c9e30e	6.3089666
48	0x4009dd36	2.1541266
49	0x3ea12981	0.31476977
50	0x3f28fd78	0.6601176
51	0x3fadddab	1.3583273
52	0x4107cd04	8.487553
53	0x3fa2c7b7	1.2717198
54	0x3f6f1843	0.93396395
55	0x3fc88178	1.5664511
56	0x407cd4bd	3.9504845
57	0x3feeb596	1.8649166
58	0x3fd08ccf	1.6292971
59	0x3f9255da	1.143245
60	0x4047893b	3.117751
61	0x3f9f0572	1.2423537
62	0x3f37d493	0.7180874
63	0x402cebb9	2.7018874
64	0x3f7c80a2	0.9863378
65	0x3f3e7ca9	0.74408966
66	0x3f6ba1c5	0.92043716
67	0x3f409a06	0.7523502
68	0x3f96d033	1.1782287
69	0x4001f653	2.0306594
70	0x3f9f52b2	1.2447112
71	0x3eda4f31	0.42638543
72	0x3f9aec97	1.2103451
73	0x3fcb0bb2	1.5862944
74	0x4039e968	2.904871
75	0x402e497e	2.7232356
76	0x3fcc4638	1.5958929
77	0x3ef9aa3c	0.4876269
78	0x3fc36373	1.5264724
79	0x3fd0cb6c	1.631208
80	0x3f9a77fa	1.2067864
81	0x3fc4a60f	1.5363177
82	0x4051c4b7	3.2776315
83	0x4097259f	4.7233424
84	0x4045132b	3.079295
85	0x3fc459b9	1.5339881
86	0x3f47a0bd	0.7797964
87	0x3fd7a65f	1.6847647
88	0x40099751	2.1498606
89	0x3f81390f	1.0095538
90	0x403865e2	2.8812184
91	0x407b3154	3.9248857
92	0x3fce0a89	1.6096965
93	0x3f65afcf	0.8972139
94	0x3ff27b55	1.8943888
95	0x3ffc7225	1.9722334
96	0x3f8c59b1	1.0964872
97	0x3fe83b14	1.8143029
98	0x3fae7de4	1.3632169
99	0x3ff818b8	1.9382544
100	0x402f8c39	2.7429335
101	0x405400a9	3.3125403
102	0x3efaa429	0.4895337
103	0x4001694e	2.0220523
104	0x3fb9ee83	1.4525913
105	0x3fb9c5de	1.4513509
106	0x40330c5b	2.797629
107	0x3f5dfd08	0.8671422
108	0x4013e918	2.311102
109	0x3f88a55a	1.0675461
110	0x401edee1	2.4823534
111	0x4025f74e	2.5932193
112	0x3eed5c5c	0.46359527
113	0x4010399b	2.253516
114	0x402aceb4	2.6688662
115	0x40629331	3.5402339
116	0x3f883a89	1.0642864
117	0x3f234f97	0.6379332
118	0x4071ef60	3.7802353
119	0x3fc92aec	1.5716224
120	0x403e7f56	2.976522
121	0x4018a9fa	2.3853745
122	0x3f53afff	0.82690424
123	0x3ffc1f79	1.9697105
124	0x4002a18a	2.0411096
125	0x403fe46c	2.9983168
126	0x3eb4932b	0.3526853
127	0x3f8190c6	1.0122306

model.4.weight f4 [128, 128]
0	0xbd0692d5	-0.032854874
1	0xbba596da	-0.0050533833
2	0xbea4f3fd	-0.32217398
3	0xbd91aac9	-0.07112653
4	0x3d8bfe5c	0.068356246
5	0x3e12afa8	0.1432482
6	0x3e3a3e46	0.18187818
7	0xbc840f5f	-0.01612061
8	0xbcb3f6e9	-0.021968322
9	0xbdf1acb9	-0.11800522
10	0xbe2abcbd	-0.1667356
11	0xbdd47dec	-0.1037558
12	0xbc0ef5cb	-0.008725594
13	0xbd13898b	-0.036019843
14	0xbcdd80a0	-0.027038872
15	0x3ce86b55	0.028371492
16	0x3e692207	0.22766887
17	0xbe074f53	-0.13213854
18	0xbb9a5cb9	-0.0047107604
19	0xbdb001ef	-0.08594119
20	0xbe05aa5c	-0.13053268
21	0xbde77306	-0.11301236
22	0xbe63a28e	-0.22229978
23	0x3d2bfe88	0.041990787
24	0x3dd29a79	0.102833696
25	0x3da1e4b0	0.07904947
26	0x3de519c2	0.111865535
27	0xbe83ee4d	-0.25767747
28	0x3e2fe04b	0.17175405
29	0xbde400e0	-0.111329794
30	0x3d76a49e	0.060215585
31	0xbdf785a6	-0.12086038
32	0x3c0b6224	0.008507285
33	0xbe23dd05	-0.16002281
34	0xbca9c71a	-0.020724822
35	0xbe10af05	-0.14129265
36	0xbe6d4dbb	-0.23174183
37	0xbdac5664	-0.08414915
38	0x3dcdb254	0.10043779
39	0x3e04830e	0.12940618
40	0x3e2a9e95	0.16662057
41	0x3e3b3059	0.18280162
42	0x3dcf3068	0.10116655
43	0x3e624fa4	0.22100693
44	0x3e08d98e	0.1336424
45	0x3e2ad8d9	0.16684283
46	0x3d78a04b	0.060699742
47	0x3c739ab3	0.014868426
48	0x3bcc1a63	0.0062287315
49	0x3d8d06d6	0.068860695
50	0xbdf9dc5b	-0.122002326
51	0x3bb5c7d3	0.0055475025
52	0x3d6c2ce2	0.05765999
53	0x3d2c6b0e	0.042094283
54	0x3b96f4a3	0.0046067997
55	0xbdad0fd1	-0.08450282
56	0x3de4564f	0.111492746
57	0x3cd95692	0.026530538
58	0x3d4bab8f	0.049724158
59	0x3e571e76	0.21007714
60	0xbda00dff	-0.078151695
61	0xbe3f436a	-0.1867806
62	0x3df490cb	0.119416796
63	0x3d871884	0.06596473
64	0x3de3b415	0.11118332
65	0xbd82a1ab	-0.06378492
66	0xbdaeb428	-0.08530456
67	0xbd3cccd9	-0.046093795
68	0xbda4d277	-0.080479555
69	0xbd29bcbb	-0.041439753
70	0x3da2dc10	0.0795213
71	0x3d56d449	0.052448545
72	0x3e891e6e	0.26781029
73	0x3d50a0b6	0.050934516
74	0x3cfbec0f	0.03075221
75	0xbe1e75ab	-0.15474574
76	0xbd6ef44f	-0.05833846
77	0x3d2c5f4a	0.042083062
78	0x3e2854d5	0.16438611
79	0xbd853d5a	-0.065058425
80	0xbd523a1e	-0.051324956
81	0xbddf170c	-0.10893068
82	0xbe51779f	-0.20455788
83	0x3e6b1767	0.22958146
84	0xbe60d780	-0.21957207
85	0xbdc4c78b	-0.09608372
86	0xbbd8b2cc	-0.006613111
87	0x3d457c27	0.048214104
88	0xbe5dffe2	-0.21679643
89	0xbe5cf5a9	-0.21578087
90	0x3da4519c	0.08023378
91	0x3bc2a1e6	0.00593971
92	0x3dec0ede	0.11526273
93	0xbcc76a34	-0.024342634
94	0x3e5f108a	0.21783653
95	0xbd5d91ab	-0.054093998
96	0x3e5fca46	0.21854505
97	0x3d6f7182	0.05845786
98	0x3d48e2e4	0.049044505
99	0x3c907748	0.017635003
100	0x3d4b4369	0.049624834
101	0x3da68ac9	0.0813194
102	0x3d9a7a3e	0.07542847
103	0x3de0ea02	0.109821334
104	0xbe218889	-0.1577474
105	0xbe41005b	-0.18847792
106	0x3ea4fe9d	0.32225505
107	0x3db0c343	0.08630993
108	0xbe57588e	-0.21029875
109	0x3d35ec7f	0.044414993
110	0xbd8d8105	-0.06909374
111	0x3d243279	0.040087197
112	0x3d093cc9	0.033505235
113	0x3dc4b371	0.09604538
114	0xbe7d63f0	-0.24745154
115	0xbe032343	-0.1280642
116	0xbd2941e7	-0.041322615
117	0x3ea322e5	0.3186256
118	0xbdb3cde9	-0.087795086
119	0xbd4a9f37	-0.049468245
120	0x3d8c38f7	0.06846803
121	0x3d56243e	0.052280657
122	0x3dd07882	0.10179235
123	0xbdd040d1	-0.10168613
124	0xbcee6cdf	-0.029104648
125	0x3ca03bf8	0.019559845
126	0xbd883005	-0.06649784
127	0xbd044e68	-0.032301337
128	0xbd9e9229	-0.077427216
129	0x3e73ddd0	0.23815084
130	0x3e93bbaf	0.2885413
131	0xbe735121	-0.23761417
132	0x3db076c7	0.08616405
133	0xbda522bc	-0.08063266
134	0xbbb94789	-0.0056542796
135	0x3e808346	0.25100154
136	0x3d745c07	0.059658077
137	0xbdf71dda	-0.120662406
138	0xbdc5a1a4	-0.09649971
139	0x3cc02aa1	0.023457827
140	0x3d16aa68	0.036783606
141	0x3d9cea0c	0.076618284
142	0xbe93fcff	-0.28903958
143	0xbdc2c4a8	-0.095101655
144	0x3d057ad5	0.032587845
145	0x3cae1380	0.021249533
146	0x3b706e62	0.0036686887
147	0x3d955786	0.072920844
148	0x3d804591	0.06263269
149	0xbcdc74a7	-0.026911093
150	0x3d6c48cf	0.057686623
151	0x3dafc75c	0.08582947
152	0x3e13d30a	0.14435974
153	0x3e47a838	0.19497764
154	0x3d401052	0.046890564
155	0x3e01bea1	0.12670375
156	0x3d150d9c	0.036389932
157	0xbd0cdcf5	-0.03439041
158	0xbcb8d119	-0.022560643
159	0xbc233dec	-0.009963494
160	0xbe1738ba	-0.14767733
161	0x3deda6f1	0.11604107
162	0x3b52e769	0.0032181388
163	0x3bb8db53	0.00564138
164	0x3cf69b62	0.03010339
165	0xbd022c90	-0.03178078
166	0x3dca525f	0.09878992
167	0x3e6f291c	0.23355526
168	0x3eaa0990	0.3321042
169	0x3be9c5ac	0.00713416
170	0xbcd150f5	-0.025551299
171	0x3d9f9483	0.07791998
172	0xbe1c0b58	-0.15238702
173	0xbdd153f2	-0.102210894
174	0xbe6375b2	-0.22212866
175	0x3e966460	0.29373455
176	0xbd8396f1	-0.06425274
177	0xbe014bd7	-0.12626587
178	0xbe8f9311	-0.2804189
179	0x3ac61de6	0.0015115112
180	0x3d901b42	0.07036449
181	0x3e87b640	0.26506233
182	0xbe44df8a	-0.19225898
183	0x3e6f3dd6	0.23363432
184	0xbcaedff6	-0.021347027
185	0xbdbc19bc	-0.09184596
186	0xbd0bacd8	-0.034100384
187	0xbc6995e7	-0.014256931
188	0xbe21bfa3	-0.1579576
189	0x3db4cef2	0.08828534
190	0x3d4b750d	0.049672175
191	0xbdaff742	-0.085920826
192	0x3d948ebc	0.07253787
193	0xbd86c115	-0.06579796
194	0x3d1a0536	0.037602626
195	0x3dd09c31	0.10186041
196	0xbe8f79ad	-0.2802252
197	0x3d122939	0.035683844
198	0x3e1e5d8b	0.15465371
199	0xbcf5b689	-0.029994266
200	0xbc6e14d7	-0.014531336
201	0x3d4aaad9	0.04947934
202	0xbddc30ce	-0.10751496
203	0x3eb282ed	0.34865513
204	0xbd424e11	-0.04743773
205	0x3e16d71e	0.14730498
206	0xbd08b067	-0.033371355
207	0x3db60964	0.0888851
208	0xbd3076c2	-0.043082006
209	0xbe1d05a7	-0.15334187
210	0x3d036847	0.03208187
211	0xbd384056	-0.04498323
212	0x3de26c52	0.11055817
213	0xbd897826	-0.067123696
214	0xbd90fcdf	-0.07079481
215	0x3e5a0fc2	0.21295074
216	0xbc92a275	-0.017899731
217	0xbe1d149e	-0.15339896
218	0xbe0ec699	-0.13942946
219	0xbeab2803	-0.33428964
220	0xbdb6bdd9	-0.08922929
221	0x3e88c9fa	0.26716596
222	0xbd3bde99	-0.045866583
223	0x3dd27298	0.10275763
224	0x3da38b72	0.079855815
225	0x3e028935	0.12747653
226	0x3d198f40	0.03749013
227	0xbe1d4ed3	-0.153621
228	0x3d81cf7f	0.06338405
229	0xbe2ffb6a	-0.1718575
230	0x3d6dec10	0.058086455
231	0xbceb872e	-0.028750982
232	0x3e1a7035	0.15081866
233	0x3c7a85bd	0.015290675
234	0xbe2a3cbb	-0.1662473
235	0x3d5a7377	0.053332772
236	0xbd405cde	-0.046963565
237	0xbdf2bbeb	-0.11852249
238	0x3d6b975d	0.0575174
239	0x3c98a940	0.018635392
240	0xbe274b5c	-0.16337341
241	0xbca59ee8	-0.020217374
242	0xbd7ab61d	-0.061208833
243	0xbcbbeb5c	-0.022939377
244	0xbe3bf038	-0.18353355
245	0x3e15da67	0.14634095
246	0xbd09f683	-0.033682358
247	0x39fc17fa	0.0004808305
248	0xbe0dc54f	-0.13844799
249	0xbd271984	-0.040795818
250	0x3e1a4996	0.15067133
251	0xbe21e2fc	-0.15809244
252	0x3e4e3bb0	0.20139956
253	0xbc21781b	-0.0098552955
254	0x3dae92a2	0.08524062
255	0x3d58df29	0.052947197

model.4.bias f4 [128]
0	0x34e8162c	4.32295e-07
1	0x3650d97a	3.1121003e-06
2	0xb6a1cad8	-4.821788e-06
3	0xb5a58738	-1.2332812e-06
4	0x359999d4	1.1444158e-06
5	0x36835f20	3.9151782e-06
6	0x362a53b4	2.5380696e-06
7	0xb68c59b5	-4.1827684e-06
8	0xb5bd43b9	-1.4101307e-06
9	0x365f88f8	3.3309316e-06
10	0x36a2c3a4	4.850752e-06
11	0xb4f2ac58	-4.520141e-07
12	0xb6c85ac8	-5.971033e-06
13	0xb6344476	-2.686194e-06
14	0xb32bd900	-4.00114e-08
15	0x373aedf3	1.1141866e-05
16	0xb6d50e02	-6.3495254e-06
17	0x36004b0e	1.9117174e-06
18	0xb779fc6d	-1.4900329e-05
19	0x36f7c150	7.383678e-06
20	0x369033f3	4.297582e-06
21	0x3447be54	1.860256e-07
22	0x372f3ffe	1.0445712e-05
23	0x36a8c8a4	5.030148e-06
24	0x36bbaed2	5.593386e-06
25	0xb6a5061a	-4.9180935e-06
26	0x3571d260	9.008563e-07
27	0xb628194c	-2.5048676e-06
28	0xb6a45450	-4.897396e-06
29	0x3654a784	3.1687969e-06
30	0x375f1ad1	1.32980795e-05
31	0xb63aed75	-2.7854378e-06
32	0xb57e2ba2	-9.468587e-07
33	0xb5873fc5	-1.0076843e-06
34	0x3725e442	9.887912e-06
35	0x3710ca4e	8.630172e-06
36	0xb69a9f1a	-4.6080795e-06
37	0xb702e8fd	-7.802851e-06
38	0xb72b40d9	-1.0207493e-05
39	0x360d4609	2.1051403e-06
40	0xb71af3a5	-9.235843e-06
41	0x36d07aec	6.213193e-06
42	0xb752fb72	-1.257552e-05
43	0xb6aa1cda	-5.0697536e-06
44	0xb61ab9fa	-2.305604e-06
45	0xb51c1370	-5.8142814e-07
46	0xb6ebd4f6	-7.0283377e-06
47	0xb75a26d4	-1.3002853e-05
48	0xb679d76b	-3.722928e-06
49	0xb691ad24	-4.341493e-06
50	0xb5c16cb6	-1.441126e-06
51	0x35e1fdb8	1.6837648e-06
52	0x36e0f881	6.70465e-06
53	0xb6044f3c	-1.9715653e-06
54	0xb6e250c7	-6.7447286e-06
55	0xb5a84bbd	-1.2539018e-06
56	0x35b7b3b4	1.3686863e-06
57	0x37237386	9.7424545e-06
58	0xb60ca4b7	-2.0957502e-06
59	0x34668a58	2.1470748e-07
60	0xb6c9629b	-6.001746e-06
61	0xb7a1951a	-1.9262126e-05
62	0xb6a569ca	-4.9296987e-06
63	0xb61b7466	-2.3164553e-06
64	0xb61ac133	-2.3060245e-06
65	0xb65dbcbc	-3.3041424e-06
66	0x3735236c	1.0796688e-05
67	0xb513bca1	-5.503626e-07
68	0x36b572db	5.4075913e-06
69	0x35d6d0f2	1.6005054e-06
70	0xb7110850	-8.644609e-06
71	0x362b118e	2.5491204e-06
72	0xb61f4432	-2.3732541e-06
73	0x35d19f93	1.5618156e-06
74	0xb4f2e566	-4.5242922e-07
75	0x34566bc0	1.9969502e-07
76	0xb51ed3a9	-5.916759e-07
77	0x36890bb6	4.0842815e-06
78	0x35902de7	1.0742195e-06
79	0x36b5282d	5.3988974e-06
80	0x375330e6	1.2587965e-05
81	0xb71e6699	-9.441422e-06
82	0xb48cf06c	-2.6251962e-07
83	0xb60e18c0	-2.1174055e-06
84	0xb51fee50	-5.9578906e-07
85	0xb62bf138	-2.5621393e-06
86	0x371699da	8.976518e-06
87	0x36959229	4.4575613e-06
88	0xb71a8c69	-9.211807e-06
89	0x3697f9f4	4.529249e-06
90	0x36b8f214	5.511809e-06
91	0x3610ea52	2.1594064e-06
92	0xb71a1565	-9.184097e-06
93	0xb616f34d	-2.2493361e-06
94	0x36015f03	1.9277802e-06
95	0xb6b2b02c	-5.3253225e-06
96	0xb548e6a6	-7.4841444e-07
97	0xb6cb8fbc	-6.0666043e-06
98	0x3704e524	7.921164e-06
99	0xb6d4401c	-6.3255557e-06
100	0xb5e2e966	-1.690624e-06
101	0xb56c9f64	-8.8148795e-07
102	0xb6936bd2	-4.3934933e-06
103	0x34ee1898	4.434885e-07
104	0x364ef3ba	3.083826e-06
105	0x36b7231d	5.4579127e-06
106	0x355079aa	7.766308e-07
107	0x372d9d6f	1.0348259e-05
108	0x369b9976	4.637225e-06
109	0x36bea6ea	5.6818726e-06
110	0xb6789813	-3.7043399e-06
111	0xb70d703e	-8.430388e-06
112	0x362bbb82	2.559013e-06
113	0xb2421ae0	-1.1298397e-08
114	0x36c7879b	5.9464487e-06
115	0xb71212e6	-8.706678e-06
116	0xb651bd3f	-3.1253583e-06
117	0xb7070405	-8.047563e-06
118	0x352597bf	6.168811e-07
119	0x35512a72	7.7920333e-07
120	0x3760fb81	1.3409998e-05
121	0xb6109736	-2.1545688e-06
122	0x36b9fdce	5.5429764e-06
123	0xb6bb3c8a	-5.580082e-06
124	0x3708dadd	8.15719e-06
125	0x34a1a74b	3.0110309e-07
126	0xb6f3c65d	-7.265057e-06
127	0xb4d16670	-3.9003817e-07

model.5.weight f4 [128]
0	0x3f76c114	0.96388364
1	0x3f87f611	1.0621969
2	0x3f830cd3	1.0238289
3	0x3f6ac1c1	0.91701895
4	0x3f75e535	0.9605287
5	0x3f826947	1.0188378
6	0x3f79a3d3	0.975156
7	0x3f6c0183	0.92189807
8	0x3f7ac6d0	0.97959614
9	0x3f761e62	0.9614011
10	0x3f7e44db	0.99323815
11	0x3f7afe2d	0.9804409
12	0x3f7fb3cb	0.9988372
13	0x3f770e76	0.9650644
14	0x3f83d00b	1.0297865
15	0x3f766b8d	0.9625786
16	0x3f7b0fed	0.98071176
17	0x3f8263c9	1.0186702
18	0x3f7746ad	0.9659222
19	0x3f75f44e	0.96075904
20	0x3f7bde26	0.98385847
21	0x3f895b37	1.0730962
22	0x3f7aa582	0.97908795
23	0x3f8392d5	1.0279185
24	0x3f755734	0.95836186
25	0x3f7b0cb0	0.98066235
26	0x3f6d4f9b	0.92699593
27	0x3f637ccf	0.8886232
28	0x3f83a72c	1.0285392
29	0x3f78c458	0.97174597
30	0x3f809216	1.0044582
31	0x3f89f1b6	1.0776889
32	0x3f888457	1.0665387
33	0x3f830d58	1.0238447
34	0x3f7534a0	0.95783424
35	0x3f778b90	0.9669733
36	0x3f7425c6	0.9537014
37	0x3f840f82	1.0317233
38	0x3f7a1d8a	0.97701323
39	0x3f7a05d9	0.9766517
40	0x3f7e8f12	0.9943706
41	0x3f837839	1.0271064
42	0x3f6837cf	0.9071016
43	0x3f8132fd	1.0093685
44	0x3f7d133f	0.9885749
45	0x3f827096	1.0190609
46	0x3f844754	1.0334268
47	0x3f814e0c	1.0101943
48	0x3f7f093e	0.9962348
49	0x3f7f5223	0.99734706
50	0x3f824fa0	1.018055
51	0x3f7759c2	0.96621335
52	0x3f874e68	1.0570803
53	0x3f857439	1.0426093
54	0x3f838b99	1.0276977
55	0x3f86d024	1.053227
56	0x3f77ca85	0.96793395
57	0x3f760be5	0.961119
58	0x3f7abb35	0.97941905
59	0x3f7c3309	0.98515373
60	0x3f84b30c	1.0367141
61	0x3f70fb99	0.9413391
62	0x3f803d87	1.0018777
63	0x3f7a6887	0.97815746
64	0x3f84b192	1.036669
65	0x3f781e19	0.96920925
66	0x3f8528f5	1.0403124
67	0x3f74396a	0.95400107
68	0x3f8793f7	1.059203
69	0x3f76e6e2	0.9644605
70	0x3f807ddc	1.0038409
71	0x3f7d2033	0.9887726
72	0x3f773e97	0.9657988
73	0x3f80235d	1.0010792
74	0x3f836d25	1.0267683
75	0x3f7e5ad6	0.99357355
76	0x3f7805f4	0.96884084
77	0x3f6f6a0f	0.9352121
78	0x3f8b3efb	1.0878595
79	0x3f869727	1.0514878
80	0x3f817dcf	1.0116519
81	0x3f6f6b7f	0.935234
82	0x3f787b84	0.9706347
83	0x3f74eec1	0.9567681
84	0x3f736e93	0.950906
85	0x3f6e8fac	0.93187976
86	0x3f762d75	0.9616311
87	0x3f803b1a	1.0018036
88	0x3f85dcb2	1.0457976
89	0x3f80fbfb	1.0076898
90	0x3f83740f	1.0269793
91	0x3f7ab6a1	0.9793492
92	0x3f77f295	0.96854526
93	0x3f86489a	1.0490906
94	0x3f802938	1.0012579
95	0x3f8572fa	1.0425713
96	0x3f849bce	1.0360048
97	0x3f7bdef2	0.9838706
98	0x3f8f1f43	1.1181415
99	0x3f7cdab0	0.9877119
100	0x3f7b66d9	0.9820381
101	0x3f8765cf	1.0577945
102	0x3f7727e2	0.9654523
103	0x3f77fed1	0.96873194
104	0x3f803797	1.0016965
105	0x3f816402	1.0108645
106	0x3f7c9ce1	0.9867688
107	0x3f8b4eb7	1.0883397
108	0x3f7dd211	0.9914866
109	0x3f7b77ef	0.9822988
110	0x3f73b9e8	0.95205545
111	0x3f83fc61	1.0311395
112	0x3f6f7ce9	0.9354997
113	0x3f799345	0.9749034
114	0x3f778bd7	0.96697754
115	0x3f77a43c	0.96734977
116	0x3f7b9946	0.9828075
117	0x3f81f16a	1.0151799
118	0x3f761444	0.9612467
119	0x3f7f544d	0.9973801
120	0x3f7b35ff	0.98129267
121	0x3f7a4754	0.9776509
122	0x3f7210ec	0.9455707
123	0x3f81d7f4	1.0144029
124	0x3f75f5e5	0.9607833
125	0x3f7b93f5	0.9827264
126	0x3f86028b	1.0469526
127	0x3f81be0d	1.0136124

model.5.bias f4 [128]
0	0xbb3e3f60	-0.0029029474
1	0x3dacf6b3	0.08445492
2	0x3d02727b	0.03184746
3	0xbdb37a16	-0.087635204
4	0xbd08c6e6	-0.03339281
5	0x3d01a1b9	0.03164837
6	0xbcdefdb5	-0.027220586
7	0xbd58d3f6	-0.052936517
8	0xbc42d538	-0.011891656
9	0xbb6a0060	-0.003570579
10	0xbb8250e4	-0.003976928
11	0x3b7dc505	0.003872217
12	0xbb69d45c	-0.0035679555
13	0xbd33cc39	-0.043895934
14	0x3b88c749	0.0041741473
15	0x3c894d16	0.01676039
16	0x391e4446	0.00015093488
17	0xbbbd7985	-0.0057823085
18	0xbca75231	-0.020424934
19	0x3c30fa5f	0.010801881
20	0x3cd46232	0.02592573
21	0x3d8c5ab3	0.06853237
22	0xbba890b0	-0.005144201
23	0x3cc44921	0.023960652
24	0xbcf31a08	-0.029675499
25	0x3bdf55f9	0.0068156687
26	0xbd53e3f5	-0.05173107
27	0xbd445a5c	-0.047937736
28	0x3cb86620	0.022509634
29	0xbcbfcb42	-0.02341235
30	0x3cbaf8a2	0.022823635
31	0x3d28b9b7	0.041192736
32	0x3d8f1a47	0.06987434
33	0x3bee51dc	0.007272942
34	0xbc741f98	-0.014900111
35	0x3c73ccf6	0.014880409
36	0xbd33276d	-0.04373877
37	0x3cd445ba	0.025912154
38	0x3c85ff7f	0.016357182
39	0xbc3e8a3d	-0.011629638
40	0x3d016be0	0.03159702
41	0x3c3d8ed9	0.011569702
42	0xbd1f416e	-0.038880758
43	0x3d59bb6f	0.053157266
44	0xbc286f64	-0.010280464
45	0x3c9bda43	0.019024974
46	0xbc5a1bac	-0.013312262
47	0x3d635afa	0.055506684
48	0x3cc524ed	0.02406546
49	0xbc8c0ec0	-0.017096877
50	0x3ca88dbc	0.020575397
51	0xbcbcd0d9	-0.023048805
52	0x3ac54f71	0.0015053583
53	0xb987bf78	-0.00025891862
54	0x3cece314	0.028916873
55	0x3baa0942	0.005189092
56	0xbd24a1b3	-0.04019327
57	0xbc9ef556	-0.019404095
58	0xbd30a073	-0.043121766
59	0x3cc17d72	0.023619387
60	0x3d898b35	0.06716005
61	0x3af94ba8	0.001901974
62	0xbc08cb91	-0.008349315
63	0xbcc81689	-0.024424808
64	0x3d948011	0.07250989
65	0xbcfce4f5	-0.030870894
66	0xbb0f2d72	-0.0021847156
67	0xbd481349	-0.048846517
68	0x3d2586f0	0.04041189
69	0xbd0869ed	-0.033304144
70	0xbcb1f118	-0.021721408
71	0xb9272d98	-0.00015943346
72	0xbb9b2267	-0.0047343257
73	0x3cf3f9f8	0.02978228
74	0x3ac33301	0.001489252
75	0x3d783287	0.06059506
76	0x3b9b3747	0.004736814
77	0xbd1f5517	-0.038899507
78	0x3dad73f7	0.08469384
79	0x3c93b917	0.018032594
80	0x3be983e5	0.0071263188
81	0xbd063662	-0.032766707
82	0x3aa3ae24	0.0012487811
83	0x3c67a288	0.014137872
84	0xbd024476	-0.03180357
85	0xbd1f6408	-0.038913757
86	0xbce5dd3e	-0.028059598
87	0x3c0aacd3	0.008464056
88	0x3d6c7e00	0.05773735
89	0x3c7c1656	0.015386185
90	0x3c8a8d87	0.016913189
91	0xbb19cd24	-0.002346822
92	0xbc8c3e5a	-0.017119575
93	0x3ccbdc47	0.02488531
94	0xbca1319e	-0.01967698
95	0x3d1f9238	0.038957804
96	0x3d100fdf	0.035171386
97	0x3b9926eb	0.004673829
98	0x3d768a4a	0.060190476
99	0xbcb0e512	-0.021593604
100	0xbcb8f080	-0.022575617
101	0x3cbdc157	0.02316348
102	0x3b7fd41b	0.0039036337
103	0xbb42542f	-0.0029652228
104	0xbc4b2a28	-0.012400188
105	0x3d1d35b6	0.0383813
106	0x3cfdbed0	0.030974776
107	0x3d7ad814	0.061241224
108	0xbca712ae	-0.02039465
109	0xbd314007	-0.04327395
110	0xbd465087	-0.04841664
111	0x3d213989	0.03936151
112	0x3bd4c20b	0.0064928583
113	0xbb870b28	-0.004121203
114	0xbc1b7345	-0.009487932
115	0xbc9998bc	-0.018749587
116	0x39b021ab	0.0003359442
117	0xbcb65edc	-0.02226203
118	0xbc37108a	-0.011173377
119	0xbcd20fc1	-0.025642278
120	0x3c254b12	0.010088699
121	0xbba9899f	-0.0051738764
122	0xbbe08cb0	-0.0068527088
123	0x3d1370aa	0.035996117
124	0x3c9c7e17	0.019103093
125	0x3cdf053a	0.027224172
126	0x3d8eb3ad	0.06967864
127	0xbaaff3ef	-0.0013424138

model.5.running_mean f4 [128]
0	0x3da68b30	0.08132017
1	0x3ec82a6b	0.39094862
2	0xbe8788f1	-0.26471666
3	0x3ed7b603	0.4213105
4	0xbe70e1b1	-0.23523594
5	0x3eaa5454	0.33267462
6	0x3e6bdb52	0.23032883
7	0x3ec76f76	0.38952225
8	0x3ed6d8be	0.41962236
9	0xbf76497e	-0.9620589
10	0x3f15c381	0.5850144
11	0xbcc0d962	-0.023541156
12	0x3f7ae44e	0.98004615
13	0x3efcd8cc	0.49384153
14	0x3f95d29e	1.17049
15	0xbf1621ad	-0.58645135
16	0x3ea77841	0.32708934
17	0x3e5d0391	0.21583392
18	0x3e8857be	0.26629442
19	0xbf195da4	-0.5990851
20	0x3ebc7aae	0.36812347
21	0x3e2db1a0	0.1696229
22	0xbe64a9d9	-0.22330417
23	0x3ee56f09	0.44811276
24	0xbf1c5d5d	-0.6107996
25	0xbf94f487	-1.1637124
26	0xbeffaabb	-0.49934945
27	0xbfa94a63	-1.3225826
28	0x3f5686f6	0.83799684
29	0x3ecdbc72	0.40182835
30	0x3e5d0944	0.21585566
31	0x3f044bf4	0.51678395
32	0x3ee3cca6	0.44492072
33	0x3e024229	0.1272055
34	0xbfc39ef9	-1.528289
35	0xbe88e44b	-0.26736674
36	0xbf32005c	-0.695318
37	0x3f41f97a	0.75771296
38	0xbe8db843	-0.27679643
39	0x3e5c1a8c	0.21494502
40	0xbcea87be	-0.02862918
41	0x3ea5f60b	0.32414278
42	0xbfdcf963	-1.7263607
43	0x3efd9957	0.49531052
44	0x3f4ecddf	0.80782884
45	0x3f205f1a	0.62645113
46	0xbdfe1fe0	-0.124084234
47	0xbdf0a91d	-0.11751006
48	0xbf09820a	-0.5371405
49	0x3db386c7	0.08765941
50	0x3ee0ee6d	0.43931904
51	0xbccbe506	-0.02488948
52	0x3f81357e	1.009445
53	0x3f31be7f	0.694313
54	0xbd8ddadb	-0.06926509
55	0xbebd6188	-0.36988473
56	0x3f69bc81	0.9130326
57	0xbe8f36aa	-0.27971393
58	0x3f494039	0.7861362
59	0x3ddbaf39	0.107267804
60	0xbe640958	-0.2226919
61	0xbf48ac0d	-0.7838753
62	0x3ec796d5	0.38982263
63	0x3e077b76	0.1323069
64	0x3e000119	0.12500419
65	0x3dd0f9f6	0.10203926
66	0x3f8c0f08	1.0942087
67	0x3f5430b8	0.8288684
68	0x3e5ad480	0.21370125
69	0xbe26feb4	-0.16308099
70	0x3f73a47a	0.95172846
71	0x3f269f5d	0.6508692
72	0x3d78173f	0.060569044
73	0x3efaa9e1	0.48957732
74	0xbe644e8d	-0.2229559
75	0x3eb6de53	0.35716495
76	0x3de8ffbe	0.11376904
77	0x3e8a5d40	0.2702427
78	0x3de15bdd	0.1100385
79	0x3dc5ae02	0.0965233
80	0xbefede1a	-0.49778825
81	0x3eab13a4	0.33413422
82	0x3ee8b88c	0.45453298
83	0xbee0d147	-0.43909666
84	0x3d7059c4	0.058679357
85	0xbeaff263	-0.34364614
86	0x3f4d1c66	0.8012146
87	0x3efad1a5	0.4898807
88	0x3f3ebe12	0.74508774
89	0x3f4ffa92	0.81241715
90	0x3f35c417	0.71002334
91	0x3ed37bcb	0.41305384
92	0x3ec7f142	0.39051253
93	0x3eae0f0e	0.3399586
94	0xbf30d71f	-0.6907825
95	0xbea17c1e	-0.31540006
96	0x3f6ec947	0.93275875
97	0x3e6f79fa	0.23386374
98	0x3e88c218	0.26710582
99	0x3f4437f4	0.7664788
100	0xbe6e842e	-0.2329261
101	0x3ec9570a	0.39324218
102	0xbe827645	-0.25480857
103	0x3cef9d38	0.029249772
104	0x3e186ecf	0.1488602
105	0xbed46543	-0.41483507
106	0x3f0304ca	0.5117918
107	0x3f3f76bd	0.74790555
108	0xbe72088d	-0.23636074
109	0xbcafa653	-0.021441614
110	0xbe287c90	-0.16453767
111	0xbe092b99	-0.13395537
112	0xbec8ac9a	-0.39194185
113	0x3e9d5382	0.30727774
114	0xbf3ab723	-0.72935694
115	0x3e990b77	0.2989156
116	0xbe1bead2	-0.15226296
117	0x3f8c9d8f	1.0985583
118	0xbc829ceb	-0.015943965
119	0xbe28192d	-0.16415854
120	0x3e5a594e	0.2132313
121	0xbf2f0583	-0.68367785
122	0xbe2be2f9	-0.16785802
123	0x3ec9d73a	0.39422017
124	0xbf43bc24	-0.76458955
125	0xbe55bebf	-0.20873545
126	0x3b50e828	0.0031876657
127	0x3f6d9d6e	0.92818344

model.5.running_var f4 [128]
0	0x3fbfd614	1.4987206
1	0x4041dfb0	3.0292778
2	0x3fbbdd8f	1.4676989
3	0x3fc6b002	1.5522463
4	0x3f8bf5f0	1.0934429
5	0x3f94df59	1.163066
6	0x401132dd	2.2687294
7	0x3f81e4ae	1.0147913
8	0x3fc615da	1.5475419
9	0x3fc03541	1.5016252
10	0x3f73210a	0.9497229
11	0x3f990acd	1.1956421
12	0x3f697dae	0.91207397
13	0x3fb6aed6	1.4272106
14	0x3f957234	1.1675477
15	0x3f788220	0.97073555
16	0x3f9c5184	1.2212377
17	0x3fcbffa8	1.5937395
18	0x3fc0a7ce	1.505121
19	0x3f84e88d	1.0383469
20	0x3f94e8f9	1.1633598
21	0x3fd0ece5	1.6322294
22	0x3fab85ff	1.3400267
23	0x3faa12ba	1.3286965
24	0x3fe6716e	1.8003366
25	0x3fb2f117	1.3979825
26	0x3f3887e3	0.72082347
27	0x3ff204b9	1.8907691
28	0x3faac9f9	1.3342887
29	0x40030e5f	2.0477521
30	0x3fb36fd3	1.4018501
31	0x4000b5f6	2.011106
32	0x3fa9dab2	1.3269866
33	0x3fce631e	1.6123998
34	0x3fd218e5	1.6413847
35	0x3fb3f728	1.4059801
36	0x3fa578d7	1.2927502
37	0x3fb63c31	1.4237119
38	0x3f7605af	0.9610242
39	0x3f8b5bb5	1.0887362
40	0x3fc6e635	1.5539004
41	0x3fa0476b	1.2521795
42	0x3f75537d	0.9583052
43	0x3fc7783e	1.558357
44	0x3fb7895e	1.4338796
45	0x4004f44b	2.0774105
46	0x400429f8	2.0650616
47	0x3fa55834	1.2917542
48	0x405d5977	3.4585855
49	0x3f8534bb	1.0406717
50	0x3fe06e81	1.7533723
51	0x3f8e58ae	1.1120813
52	0x3fbeaa37	1.4895695
53	0x3fc9ac97	1.5755795
54	0x3fdbf625	1.7184492
55	0x3f8b6afc	1.0892024
56	0x40152d5e	2.330894
57	0x3fba6df3	1.4564804
58	0x400d8300	2.2111206
59	0x3faa4db1	1.330496
60	0x3f973e70	1.181593
61	0x3f91e7a4	1.1398816
62	0x3fcce356	1.6006877
63	0x3ffd831a	1.9805634
64	0x3fb704da	1.4298356
65	0x3f9240d1	1.142603
66	0x3f963af9	1.1736747
67	0x3fd22471	1.6417371
68	0x3ff6a4f9	1.9269096
69	0x3fe13b16	1.7596157
70	0x3f94c7f3	1.162352
71	0x3fd0b0d6	1.6303966
72	0x3fb72127	1.4306992
73	0x3fd19cf3	1.6376022
74	0x4004bd44	2.0740519
75	0x3fd9905b	1.6997179
76	0x3fc54c4d	1.541391
77	0x3fd77101	1.6831361
78	0x3fe71e5e	1.8056142
79	0x40053f05	2.0819714
80	0x3fc49b94	1.5359979
81	0x3f52b9ee	0.82314956
82	0x3faf6ca9	1.3705035
83	0x3fff32ae	1.9937341
84	0x3f817609	1.0114146
85	0x3fb7945e	1.4342153
86	0x3f6f9733	0.93590087
87	0x3fdae959	1.7102462
88	0x3ff11365	1.8834044
89	0x3fe5d963	1.7956966
90	0x3ff0615e	1.8779714
91	0x3fa16675	1.2609392
92	0x3fc3b04b	1.5288175
93	0x40043028	2.0654392
94	0x4006d689	2.1068442
95	0x3f8119e6	1.0086029
96	0x3f607925	0.8768485
97	0x3fb83763	1.4391903
98	0x3f9e42b3	1.2364105
99	0x3fc35494	1.5260186
100	0x3fe3bcfd	1.779205
101	0x40067d42	2.1013951
102	0x4003a579	2.0569746
103	0x3fda4ce6	1.7054718
104	0x400297c3	2.0405128
105	0x3fe5f2ed	1.796476
106	0x3fc0b5bd	1.5055462
107	0x40185d76	2.3807044
108	0x3ff87b4e	1.941263
109	0x3fc09f0c	1.5048537
110	0x3f9eb696	1.2399471
111	0x3fa2bcde	1.2713888
112	0x3fb0ad97	1.3802975
113	0x3fa7bf98	1.3105345
114	0x3fa9e1e5	1.3272063
115	0x3f727112	0.9470378
116	0x40020c61	2.0320055
117	0x4009fbbc	2.1559896
118	0x3faa3083	1.3296055
119	0x403b98d2	2.9312024
120	0x3fd59f47	1.6689233
121	0x3fa3da35	1.2800967
122	0x3f914501	1.1349183
123	0x3f897240	1.0737991
124	0x3fa7e23a	1.3115914
125	0x3fb986fb	1.4494318
126	0x40104bc2	2.254624
127	0x3fd3a299	1.6533996
