models/case39_gnn_model.pt (torch, 109084 bytes, 26 tensors)

input_projector.weight f4 [10, 78]
0.07819243 0.085595325 -0.018456396 0.09561636 -0.016772434 0.014853335 -0.04682601 0.058160976
0.091423675 -0.07469802 0.090027265 0.013239518 0.075283475 0.00761516 0.04629788 -0.008234541
0.07891016 0.00894594 -0.044567745 0.020754794 -0.04387954 -0.0056962823 -0.03772935 0.06675707
-0.08100012 -0.043910407 -0.023825422 -0.05974133 0.003354537 -0.103429504 0.09386268 -0.08779614
0.079039216 0.010965915 -0.02857049 0.061625194 0.009815722 0.08310253 0.0048618764 -0.02752326
0.022293357 -0.022573637 0.039384946 0.0926994 0.057119284 -0.04122342 0.057029493 0.012335266
0.049191847 -0.060671303 -0.103681654 -0.03550058 -0.078473665 0.0845245 0.024457965 0.03863648
0.027621724 0.00074977643 0.08023555 -0.072085164 0.00049493054 -0.0689235 0.026735477 -0.030779878
0.02651844 -0.015577985 0.085525684 -0.05877329 -0.05919075 -0.059194814 0.09344823 0.029529547
0.10055277 -0.085060276 -0.10390417 -0.080207914 -0.06781138 0.037602942 0.032318704 0.08569893
-0.050161522 -0.06882987 0.051758256 -0.03750932 0.060378656 -0.018793942 0.056440517 -0.07959783
-0.04883273 0.026345812 0.015917186 -0.020761818 0.05915268 0.06861454 -0.073742285 -0.05213004
0.09528276 -0.02999915 -0.031918768 -0.101157285 -0.056511033 0.0201864 -0.0072493623 -0.073822826
-0.0009994523 -0.06898466 -0.087675385 -0.05402639 -0.090708196 -0.0637479 0.10477898 0.013428383
0.02671367 -0.097208284 -0.0660117 -0.029485162 0.009876878 -0.09124041 -0.040514123 -0.059447456
2.0337848e-05 -0.033896375 -0.0010066879 -0.06836871 -0.069359906 -0.057722695 -0.030546416 -0.08099012
0.08655207 -0.014485846 0.08903176 0.027097626 -0.08749434 0.06999656 -0.023017466 -0.035159126
-0.08560245 -0.1041626 0.024243543 -0.016697643 0.03583399 -0.08453865 0.075692944 -0.07474613
-0.0116494745 0.015636466 0.05014194 0.083028674 0.09475085 -0.08140175 0.020394322 -0.040429186
-0.0048986 -0.07637814 0.09473802 -0.07473493 0.053045288 0.031997904 0.028598247 -0.052895326
0.09713026 0.016849024 0.0140408315 -0.092118226 0.039264515 -0.009184261 -0.043585006 0.08886805
0.023051389 -0.054783545 -0.054458626 -0.0040641096 0.05490096 -0.022245271 -0.056274403 -0.030561984
-0.07621815 0.032156646 0.07927085 -0.09839216 0.01823148 0.05018031 0.012598556 -0.032099564
0.05499527 0.052944787 0.039683256 -0.012597409 -0.021860471 0.0046310513 -0.016909288 -0.025812138
0.06402677 0.0889193 -0.010319368 -0.019345956 0.0021614428 -0.0048790807 0.019139756 0.02358584
-0.09551429 -0.034380507 0.089639604 0.036826964 -0.004635994 -0.060058173 -0.061810806 -0.09304141
-0.033739742 0.03132481 0.066100255 0.044097643 -0.09307929 -0.05979342 -0.010029164 0.10112958
0.008742816 -0.021212194 0.038580414 -0.034883983 -0.06493619 0.07427513 -0.043199137 -0.014707044
-0.10423543 0.06742388 0.07741199 0.03303542 -0.07058875 -0.10334575 -0.08357923 0.07606275
0.05376911 0.08887592 0.051113095 0.020649973 0.0002903084 -0.07773661 -0.0892609 -0.09751018
0.043672353 -0.047908552 -0.014793878 -0.056831162 -0.01269678 -0.07133029 -0.06634201 0.02966193
-0.029327298 0.061851323 -0.028141862 -0.074702956 -0.012061946 -0.046587408 -0.026465219 -0.09939269
00000000: 5a23 a03d 9a4c af3d de31 97bc 83d2 c33d
00000010: 5866 89bc 675b 733c a1cc 3fbd 343a 6e3d
00000020: 563c bb3d 47fb 98bd 3760 b83d 90ea 583c
00000030: 392e 9a3d 9888 f93b d9a2 3d3d 2bea 06bc
00000040: a69b a13d fe91 123c ab8c 36bd f505 aa3c
00000050: 08bb 33bd e1a7 babb 178a 1abd eeb7 883d
00000060: 64e3 a5bd 66db 33bd 882d c3bc 53b3 74bd
00000070: cbd7 5b3b d9d2 d3bd 143b c03d 76ce b3bd
00000080: 50df a13d 62aa 333c a90c eabc b36a 7c3d
00000090: 1fd2 203c a931 aa3d 6050 9f3b 7678 e1bc
000000a0: 8fa0 b63c 59ec b8bc 1c52 213d 2fd9 bd3d
000000b0: e9f5 693d e4d9 28bd c297 693d db19 4a3c
000000c0: 647d 493d 7982 78bd 0c57 d4bd 0e69 11bd
000000d0: cdb6 a0bd 2e1b ad3d 125c c83c 4941 1e3d
000000e0: f446 e23c a58c 443a 8952 a43d 63a1 93bd
000000f0: 3abe 013a c427 8dbd 5c04 db3c 1526 fcbc
00000100: 333d d93c ce3a 7fbc 1728 af3d 43bc 70bd
00000110: 0072 72bd 4376 72bd c961 bf3d f3e7 f13c
00000120: 9cee cd3d 1534 aebd b6cb d4bd 0c44 a4bd
00000130: b1e0 8abd 8b05 1a3d 9e60 043d ec82 af3d
00000140: 2b76 4dbd adf6 8cbd 7700 543d 5fa3 19bd
00000150: 9c4f 773d c1f5 99bc 2c2e 673d 3004 a3bd
00000160: d404 48bd 2cd3 d73c c264 823c b014 aabc
00000170: 154a 723d c885 8c3d 3206 97bd 4f86 55bd
00000180: 9c23 c33d c7c0 f5bc 41bd 02bd 8d2b cfbd
00000190: 1d78 67bd f35d a53c 0f8c edbb 6c30 97bd
000001a0: 0e00 83ba d447 8dbd 278f b3bd c74a 5dbd
000001b0: 38c5 b9bd 428e 82bd 5d96 d63d b802 5c3c
000001c0: a0d6 da3c 2315 c7bd 2431 87bd de8a f1bc
000001d0: a1d2 213c 41dc babd 23f2 25bd 2d7f 73bd
000001e0: 329b aa37 edd6 0abd d7f2 83ba e504 8cbd
000001f0: 910c 8ebd a26e 6cbd 7a3c fabc 26de a5bd
00000200: 3642 b13d 0b56 6dbc 4956 b63d d7fb dd3c
00000210: 3c30 b3bd 5b5a 8f3d 208f bcbc 0403 10bd
00000220: 5650 afbd 3453 d5bd 659a c63c 7fc9 88bc
00000230: a9c6 123d 9a22 adbd e704 9b3d 8014 99bd
00000240: 70dd 3ebc 0c18 803c a361 4d3d f00a aa3d
00000250: bc0c c23d f6b5 a6bd fe11 a73c 1399 25bd
00000260: 6f84 a0bb 246c 9cbd 0206 c23d a10e 99bd
00000270: 0446 593d 3c10 033d df46 ea3c c5a8 58bd
00000280: 3bec c63d f706 8a3c 840b 663c 7ba8 bcbd
00000290: d4d3 203d 9579 16bc 3186 32bd 7400 b63d
000002a0: 44d6 bc3c b664 60bd 0210 5fbd 392c 85bb
000002b0: d4df 603d b73b b6bc fd7f 66bd 205d fabc
000002c0: 4318 9cbd b0b6 033d c158 a23d d481 c9bd
000002d0: 2f5a 953c de89 4d3d 2c6a 4e3c d57a 03bd
000002e0: b842 613d a2dc 583d e98a 223d 5d65 4ebc
000002f0: bb14 b3bc 13c0 973b 5985 8abc fa73 d3bc
00000300: 7820 833d 521b b63d 9112 29bc 697b 9ebc
00000310: fea6 0d3b b2e0 9fbb faca 9c3c 1737 c13c
00000320: ff9c c3bd 93d2 0cbd f894 b73d dfd7 163d
00000330: 89e9 97bb 8fff 75bd 542d 7dbd 7f8c bebd
00000340: af32 0abd 724e 003d 925f 873d bb9f 343d
00000350: 5ba0 bebd f2e9 74bd 5d51 24bc 061d cf3d
00000360: 073e 0f3c 32c5 adbc 7f06 1e3d 82e2 0ebd
00000370: 44fd 84bd 8f1d 983d 94f1 30bd d0f5 70bc
00000380: 6379 d5bd 8815 8a3d 2d8a 9e3d 2650 073d
00000390: d690 90bd f0a6 d3bd 962b abbd c9c6 9b3d
000003a0: 003d 5c3d 9404 b63d f75b 513d 222a a93c
000003b0: 8934 9839 5f34 9fbd 6bce b6bd 6bb3 c7bd
000003c0: c8e1 323d c23b 44bd 0662 72bc cbc7 68bd
000003d0: 2806 50bc 9d15 92bd 52de 87bd 93fd f23c
000003e0: cd3f f0bc d057 7d3d c389 e6bc ddfd 98bd
000003f0: 789f 45bc 70d2 3ebd 96cd d8bc 658e cbbd

input_projector.bias f4 [10]
0.007957443 -0.036625292 0.024106529 0.034747332 -0.051327523 -0.104011625 0.051115993 0.01988971
-0.04958066 0.10085427
00000000: ef5f 023c 6704 16bd 0e7b c53c 3853 0e3d
00000010: cf3c 52bd 0c04 d5bd 015f 513d bfef a23c
00000020: 1715 4bbd af8c ce3d

gnn.node_norm.weight f4 [10]
0.9920703 0.99163485 0.9915107 0.9915107 1.0071112 0.9985207 1.0032694 0.9915107
0.9915107 0.9915107
00000000: 52f8 7d3f c8db 7d3f a5d3 7d3f a5d3 7d3f
00000010: 05e9 803f 0d9f 7f3f 226b 803f a5d3 7d3f
00000020: a5d3 7d3f a5d3 7d3f

gnn.node_norm.bias f4 [10]
0.008346341 0.0029023732 0.008198947 -0.008204152 -0.0068645217 -0.008203166 -0.008426797 0.0069823815
9.1062975e-07 0.008341342
00000000: 17bf 083c be35 3e3b e054 063c b56a 06bc
00000010: c8ef e0bb 9266 06bc 8c10 0abc 76cc e43b
00000020: 0072 7435 20aa 083c

gnn.node_norm.running_mean f4 [10]
1.6966978 1.1634103 0.68366134 1.9253764 0.15982652 -1.4492314 1.2488686 2.4882066
-0.04233336 1.6896778
00000000: 652d d93f a1ea 943f 6e04 2f3f bc72 f63f
00000010: 90a9 233e 6a80 b9bf edda 9f3f c73e 1f40
00000020: bf65 2dbd 5d47 d83f

gnn.node_norm.running_var f4 [10]
5.5453935 0.457821 3.925994e-07 3.925994e-07 0.028940255 0.00048020502 0.0008277488 3.925994e-07
3.925994e-07 3.925994e-07
00000000: dd73 b140 8467 ea3e 73c6 d234 73c6 d234
00000010: 1d14 ed3c 07c4 fb39 48fd 583a 73c6 d234
00000020: 73c6 d234 73c6 d234

gnn.node_embedding.weight f4 [64, 10]
-0.81857777 0.38078323 -0.04066203 0.12778725 0.6707041 -0.2971177 0.233063 0.044139907
0.3062234 -0.75466657 -0.031441137 -0.17006697 0.17684875 0.19365568 0.77793705 -0.25411665
0.27915618 0.29569495 -0.35458368 -0.0074808327 0.002085085 -0.38489708 0.9183398 0.14612591
-0.6191109 -0.045947723 -0.44672796 -0.4434368 0.09691733 -0.58957165 -0.44220522 0.12499491
-0.06655484 0.038007915 -0.078606896 -0.27166623 -0.6982035 0.5925656 0.033084046 0.12631895
-0.33935383 -0.47705886 0.7242643 -0.123158395 -0.6477969 -0.21148387 0.10783974 0.24402489
-0.30678067 -0.3064381 0.1441403 -0.2590975 -0.19004105 -0.067851864 0.10650586 -0.71172243
-0.72860116 0.6147597 -0.59812737 0.15552244 0.06166916 0.1100073 1.283936 -0.4364492
-0.16469227 -0.50124294 -0.069927566 0.56860733 -0.2814095 -0.80651504 -0.075695954 0.09134523
-0.17319086 0.22518763 0.59481955 -0.094829075 0.37888244 0.606471 0.7404798 0.35433772
-0.42846122 -0.66760844 -0.08376914 -0.00023584325 -0.07904054 1.054499 -0.2121113 0.27462167
0.9100768 -0.4065202 -0.88225263 -0.6643829 0.44016936 -0.38902548 0.47722456 0.24373887
-0.32249287 -0.29006818 0.09774465 0.06695934 0.27758262 0.428536 -0.15184042 -0.19332194
-0.80115926 0.20871316 0.28596655 -0.6544027 0.45258492 -0.41226628 -0.5530701 0.21048349
0.06878897 -0.16700082 -0.85238254 0.3509128 0.756644 -0.109153494 0.7061571 0.14934915
0.07483997 -0.50511724 1.3012558 -0.58917826 -0.49294016 -0.17695473 -0.33509058 -0.33469146
-0.63727 -0.077546164 0.33101898 0.18130325 0.084646605 0.5416087 0.3277241 -0.008212124
0.025095036 0.25231612 0.003666353 0.102009356 -0.15235993 0.7754024 -0.95292884 -0.32594636
-0.13759369 0.4842526 0.047251206 -0.07716649 -1.2637248 -0.23618059 0.24626732 0.43883872
-0.81844896 0.4268259 -0.30963132 -0.3365893 -0.5742614 -0.2958632 0.17381124 -0.15029733
0.68036664 -0.21023166 0.71369565 -0.4099674 -0.03253798 -0.15428032 -0.5377067 -0.62218297
-0.8402231 -0.35619333 0.4093869 0.2989202 0.23192991 -0.6875856 0.5911505 -0.4531366
-0.21496107 0.14526911 0.19759643 -0.6226969 -0.24409446 -0.44415233 -0.9050849 -0.2687062
0.45182523 0.8034272 0.43770465 0.6533873 0.26057518 0.8656332 0.3639517 0.3308503
-0.026822694 -0.23811093 -0.123987325 0.10436347 -0.6600015 -0.0076956255 0.38359416 0.024516547
0.2104467 0.060980424 0.43947977 -0.09253704 0.24541797 0.6954368 -0.29094622 -0.94187266
-0.25953007 0.36218765 0.25181612 -0.19975005 -0.09041495 -0.3331838 -0.35304824 -0.25694224
-0.08736346 0.22260797 1.1249113 0.17670503 0.17102513 -0.55446243 -0.22428884 0.16439421
-0.21535257 -0.69956625 -0.076427296 -0.12046129 -0.79247874 0.89814186 -0.85892946 -0.29835138
-0.20848592 0.8888519 -0.8802634 -0.6763146 0.1729179 -0.03576858 0.1452096 -0.14808953
-0.26540872 -0.9669471 0.62317 0.32568684 0.20709984 0.2525902 0.092043065 0.17775097
0.19503245 -0.1755028 -0.49363527 -0.627338 1.0156513 0.4770136 -0.75083965 0.2946835
00000000: 508e 51bf 05f6 c23e 3b8d 26bd a9da 023e
00000010: 44b3 2b3f d01f 98be 11a8 6e3e 0ccc 343d
00000020: 50c9 9c3e d431 41bf 6cc8 00bd 0926 2ebe
00000030: d717 353e ad4d 463e e226 473f 941b 82be
00000040: 8fed 8e3e 5465 973e fe8b b5be c621 f5bb
00000050: eca5 083b 3b11 c5be 5118 6b3f 08a2 153e
00000060: 0d7e 1ebf ae33 3cbd 87b9 e4be 260a e3be
00000070: 987c c63d 2bee 16bf b968 e2be 55fd ff3d
00000080: e74d 88bd 30ae 1b3d a7fc a0bd d617 8bbe
00000090: 77bd 32bf 61b2 173f 2383 073d c159 013e
000000a0: c9bf adbe 0f41 f4be 6369 393f 783a fcbd
000000b0: 05d6 25bf 3a8f 58be 15db dc3d a9e1 793e
000000c0: 5b12 9dbe 74e5 9cbe 8499 133e 6da8 84be
000000d0: 1f9a 42be ebf5 8abd bf1f da3d 7133 36bf
000000e0: 9b85 3abf e460 1d3f e01e 19bf 4641 1f3e
000000f0: cd98 7c3d 824b e13d 0458 a43f 4576 dfbe
00000100: 17a5 28be 7551 00bf 2f36 8fbd 4090 113f
00000110: e814 90be c577 4ebf 7b06 9bbd 3513 bb3d
00000120: f258 31be 9697 663e 1846 183f bf35 c2bd
00000130: e1fc c13e af41 1b3f 1690 3d3f c16b b53e
00000140: 455f dbbe 63e8 2abf 288f abbd b14c 77b9
00000150: 02e0 a1bd d3f9 863f b433 59be 369b 8c3e
00000160: cbfa 683f 6a23 d0be 4fdb 61bf ff14 2abf
00000170: e15d e13e 592e c7be c756 f43e af96 793e
00000180: c91d a5be d183 94be 592e c83d fa21 893d
00000190: 4f1f 8e3e 1269 db3e 0e7c 1bbe 30f6 45be
000001a0: c618 4dbf e7b8 553e 356a 923e ef86 27bf
000001b0: 36b9 e73e 9114 d3be 0196 0dbf fc88 573e
000001c0: 3be1 8c3d 4302 2bbe be35 5abf d8aa b33e
000001d0: 6cb3 413f de8b dfbd b6c6 343f fcee 183e
000001e0: b345 993d 5d4f 01bf 8d8f a63f 63d4 16bf
000001f0: a762 fcbe 9f33 35be fe90 abbe ae5c abbe
00000200: 2024 23bf 86d0 9ebd 527b a93e 8fa7 393e
00000210: 335b ad3d dea6 0a3f 74cb a73e 258c 06bc
00000220: 1b94 cd3c 942f 813e 3247 703b 48ea d03d
00000230: 3e04 1cbe c680 463f 25f3 73bf 71e2 a6be
00000240: 5ce5 0cbe f5ef f73e 7b8a 413d 7709 9ebd
00000250: bcc1 a1bf 53d9 71be 802d 7c3e 78af e03e
00000260: df85 51bf ed88 da3e ff87 9ebe 6f55 acbe
00000270: cc02 13bf 627b 97be 93fb 313e 8be7 19be
00000280: 822c 2e3f f846 57be c2b4 363f 3fe7 d1be
00000290: 8b46 05bd a9fb 1dbe 25a7 09bf 6247 1fbf
000002a0: dc18 57bf f95e b6be 299b d13e 120c 993e
000002b0: 097f 6d3e 9c05 30bf a455 173f 8501 e8be
000002c0: c11e 5cbe 6dc1 143e b856 4a3e 1069 1fbf
000002d0: e6f3 79be ef67 e3be a5b3 67bf dc93 89be
000002e0: a355 e73e 68ad 4d3f d31a e03e 6444 273f
000002f0: 1c6a 853e 239a 5d3f e157 ba3e 3665 a93e
00000300: 44bb dbbc 5ad3 73be 11ed fdbd 84bc d53d
00000310: dcf5 28bf 962b fcbb 7466 c43e edd6 c83c
00000320: 577f 573e 9cc6 793d 7e03 e13e 0f84 bdbd
00000330: d94e 7b3e 2508 323f e7f6 94be 911e 71bf
00000340: 20e1 84be a970 b93e 0bee 803e 478b 4cbe
00000350: 792b b9bd 1197 aabe bdc2 b4be ef8d 83be
00000360: 9deb b2bd 58f3 633e 18fd 8f3f 2af2 343e
00000370: 3621 2f3e 40f1 0dbf f9ab 65be f556 283e
00000380: 6285 5cbe c616 33bf ea85 9cbd 69b4 f6bd
00000390: e3df 4abf a0ec 653f cde2 5bbf 83c1 98be
000003a0: 557d 55be cc8b 633f f158 61bf f422 2dbf
000003b0: 6411 313e 1382 12bd d3b1 143e c8a4 17be
000003c0: a7e3 87be d889 77bf 1288 1f3f 6dc0 a63e
000003d0: fb11 543e 8153 813e 1381 bc3d 5a04 363e
000003e0: 96b6 473e 02b7 33be c3bd fcbe 3999 20bf
000003f0: dd00 823f 203b f43e 0737 40bf c1e0 963e

gnn.node_embedding.bias f4 [64]
0.00829374 -0.0075411266 0.0045410166 0.008381379 0.008342065 -0.00076597 0.004223175 0.0080473395
-0.0013972903 0.006873232 0.008167414 -0.007241815 -0.007435406 0.0068579656 -0.0003706318 -0.008428818
0.00833032 -0.0077960705 -0.0077898293 0.0064530578 -0.0011459036 0.0075927423 0.002640739 -0.008519297
-0.0072625447 0.003411802 -0.007944064 -0.008490855 0.0054401485 0.007232155 0.008289556 -0.0022401973
-0.004891569 -0.004255506 -0.003347205 0.00067611353 -0.007724833 0.007421223 0.0075778123 -0.007784539
-0.0076689436 0.0056243534 -0.006771927 -0.007735149 -0.008084269 -0.006962628 -0.007407117 0.0056381593
0.0074775703 -0.0073035927 -0.008037653 -0.008418192 -0.007715064 0.0015562945 0.006560758 -0.0060468717
0.0040387847 0.0047922237 -0.0011313616 0.005631978 -0.0080273235 -0.007457392 0.008366849 0.008335963
00000000: 78e2 073c 8e1b f7bb cfcc 943b 0d52 093c
00000010: 28ad 083c 60cb 48ba 8f62 8a3b fdd8 033c
00000020: 4825 b7ba d938 e13b 9ed0 053c bf4c edbb
00000030: b5a4 f3bb c9b8 e03b 5c51 c2b9 0619 0abc
00000040: e57b 083c 2e76 ffbb d341 ffbb 2c74 d33b
00000050: 2532 96ba 8acc f83b 4010 2d3b 8594 0bbc
00000060: a4fa edbb 8a98 5f3b d227 02bc 3a1d 0bbc
00000070: 4643 b23b b7fb ec3b ebd0 073c 46d0 12bb
00000080: 7449 a0bb c671 8bbb c85c 5bbb 363d 313a
00000090: 9920 fdbb bb2d f33b 4c4f f83b 7215 ffbb
000000a0: c34b fbbb 7f4c b83b 0ae7 ddbb 2277 fdbb
000000b0: e273 04bc c226 e4bb 67b7 f2bb 4fc0 b83b
000000c0: 6806 f53b fa52 efbb 5cb0 03bc 75ec 09bc
000000d0: a6ce fcbb 94fc cb3a a1fb d63b d624 c6bb
000000e0: c857 843b 1608 9d3b 324a 94ba 758c b83b
000000f0: 0985 03bc 235d f4bb 1c15 093c 9093 083c

gnn.convs.0.bias f4 [64]
0.0074584135 -0.006825249 0.0049793823 0.008121292 0.0045804847 -0.0026223266 0.008169357 0.007970942
0.008200055 -0.005393241 0.0069662076 -0.008126421 -0.002382588 -0.0011799019 -0.008058703 -0.008508436
0.0075628217 -0.0069749425 -0.007946513 0.0061757346 -0.008049339 0.008476458 0.002836342 -0.008503793
0.0072995047 0.0073241894 -0.00782019 -0.008361986 0.007768474 0.008285018 0.007864981 -0.0072825216
0.008298849 0.0062355287 0.0059912917 0.008247757 0.0037037972 0.0030376562 0.0076733204 -0.0082233185
-0.008073284 0.0077248984 -0.0051311944 0.008250942 -0.008028712 0.007973531 -0.0029855822 0.0011739812
0.0064178547 -0.007961352 0.0014385771 -0.008468913 -0.008396871 -0.0022823364 -0.0040202164 -0.0033721384
-0.0072109327 0.007556342 -0.0073162112 -0.0023498992 -0.0059016924 -0.006056937 0.008397799 0.008286126
00000000: b565 f43b 57a6 dfbb 162a a33b 2b0f 053c
00000010: e417 963b 57db 2bbb c4d8 053c 8e98 023c
00000020: 8659 063c c9b9 b0bb c944 e43b ae24 05bc
00000030: 3225 1cbb f0a6 9aba a608 04bc f866 0bbc
00000040: 8cd1 f73b 0f8e e4bb 1732 02bc d15d ca3b
00000050: 60e1 03bc d7e0 0a3c ece1 393b 7e53 0bbc
00000060: af30 ef3b c1ff ef3b 4120 00bc b600 09bc
00000070: af8e fe3b e2bd 073c 1fdc 003c 38a2 eebb
00000080: e5f7 073c 6853 cc3b 9952 c43b 9a21 073c
00000090: 68bb 723b 6a13 473b 7a70 fb3b 19bb 06bc
000000a0: cf45 04bc 2521 fd3b 9423 a8bb f62e 073c
000000b0: dc8a 03bc 6aa3 023c c2a9 43bb 46e0 993a
000000c0: de4c d23b 5570 02bc a38e bc3a 32c1 0abc
000000d0: 0893 09bc 4093 15bb 05bc 83bb 18ff 5cbb
000000e0: b049 ecbb 319b f73b d4bc efbb c400 1abb
000000f0: fc62 c1bb 4579 c6bb ec96 093c 88c2 073c

gnn.convs.0.lin.weight f4 [64, 64]
0.18781026 -0.18920562 0.09785662 0.12483371 -0.07064794 -0.06686545 -0.13815995 0.049998652
0.08091651 -0.0776536 0.18265449 -0.024986278 -0.026393134 0.16160065 0.04596823 0.12229472
0.1347025 -0.14982018 -0.007725994 0.19849457 -0.12539572 0.03521872 0.15976013 0.029889014
-0.051490273 0.08596354 -0.18460613 0.17809711 0.17814378 -0.06814649 -0.07030164 -0.049753465
0.22284931 -0.075587854 0.07248643 -0.21399978 0.06959885 0.12328752 0.07698835 -0.005261896
0.007912216 0.18200094 0.10217948 -0.056714244 -0.16592707 0.16551082 -0.08815939 0.14252335
-0.05139165 0.0104123335 -0.16407417 -0.08985002 0.024721703 -0.20255303 -0.041655615 0.13375446
0.14421855 0.15163869 -0.057819016 0.009558948 -0.18082431 0.10436857 0.046395667 0.18774724
-0.039190937 0.20608856 0.11138554 0.1765317 -0.005653216 -0.17838146 -0.17832361 -0.20320725
0.044518378 -0.15915039 -0.07316064 0.118513875 0.20176668 -0.06282338 0.1466267 -0.024679516
-0.05124964 -0.034183424 -0.089720845 0.05166061 0.006633062 -0.11356016 0.12933148 -0.091240935
-0.13825375 0.083553195 -0.0048747095 -0.11064025 -0.16824223 -0.06718167 -0.15867053 0.1105675
-0.018636977 0.119588874 0.10126256 0.008907069 -0.04185851 -0.120102964 0.040781945 -0.1947295
-0.10137148 0.16492681 -0.033473108 0.18279777 0.13139096 -0.037250757 -0.17426528 0.16629106
0.025248075 0.19653897 -0.20195894 0.05154592 -0.17869921 -0.03446507 -0.19824891 -0.18864119
0.0024189423 0.21879305 0.025079072 -0.016698442 0.20876287 0.0113309035 -0.11257195 0.14211257
0.15031543 0.18500307 0.16958609 0.19637388 -0.08662079 0.023708403 -0.086668946 -0.029907707
0.17895418 -0.16527352 0.12283276 -0.11728938 -0.0020192259 -0.025691183 -0.08952483 0.013589451
-0.112839386 0.18834274 -0.07149789 0.13769212 -0.043558944 -0.17696385 0.15991366 -0.06781846
-0.084294066 0.019187722 0.004954002 0.06877664 -0.04594101 -0.0640915 0.12612525 0.097966015
0.1926456 0.025270624 -0.05152778 -0.05372007 -0.051943183 -0.075359814 -0.07461563 -0.066334404
0.063240536 0.0873311 0.17262338 -0.20856808 0.17539097 -0.039556183 -0.21476364 0.1430237
-0.12697104 -0.09867895 0.06472665 0.03503981 0.13933486 -0.15750705 0.11015904 0.120590515
0.12681803 -0.080126874 0.04463122 0.061332285 0.20711888 -0.13556117 -0.19101024 -0.20379868
0.020971185 -0.17229614 -0.04347391 -0.10911537 0.047179356 -0.16141996 0.12553853 -0.21870069
-0.11055821 0.05273286 -0.20510739 0.061417475 -0.08822766 -0.11762624 0.16304456 -0.07795581
0.043296874 -0.09169943 0.10930618 0.18964364 0.21572445 -0.13885297 -0.22315842 -0.15895902
0.06907088 0.095115155 0.12172147 0.102009915 0.21882468 -0.16270314 -0.16184309 -0.07587892
0.17611004 -0.15836352 0.17009434 0.027966205 0.12601508 0.2064714 0.2028428 0.21443881
-0.045562137 -0.1002941 0.100011274 0.19260663 0.013132509 -0.0432619 -0.042687826 -0.08082496
0.110120215 -0.2233223 0.17648502 -0.0005179631 -0.13866858 -0.08518868 -0.14094642 -0.18009539
0.013653961 -0.05688621 -0.089206494 -0.04438732 -0.02311746 0.08713151 -0.16717502 -0.012802983
00000000: 5551 403e 1ebf 41be 0d69 c83d d1a8 ff3d
00000010: deaf 90bd c1f0 88bd cd79 0dbe 63cb 4c3d
00000020: 8eb7 a53d da08 9fbd c709 3b3e 06b0 ccbc
00000030: 6a36 d8bc a47a 253e 2f49 3c3d a775 fa3d
00000040: 74ef 093e 766a 19be 562a fdbb 2942 4b3e
00000050: bc67 00be 8141 103d 2998 233e ced9 f43c
00000060: 77e7 52bd a70d b03d 6409 3dbe 175f 363e
00000070: 536b 363e 6390 8bbd 4efa 8fbd 4aca 4bbd
00000080: 9c32 643e cecd 9abd c473 943d c222 5bbe
00000090: d889 8e3d 2b7e fc3d 11ac 9d3d fc6b acbb
000000a0: 3da2 013c 745e 3a3e 7a43 d13d 324d 68bd
000000b0: c9e8 29be ab7b 293e e98c b4bd a4f1 113e
000000c0: 0d80 52bd 7e98 2a3c 0f03 28be 4a03 b8bd
000000d0: 2b85 ca3c 106a 4fbe 149f 2abd eef6 083e
000000e0: 07ae 133e 2c47 1b3e a2d3 6cbd 229d 1c3c
000000f0: 022a 39be 30bf d53d 6209 3e3d d040 403e
00000100: ad86 20bd e108 533e 1a1e e43d bac4 343e
00000110: 9d3e b9bb a1a9 36be 779a 36be 9015 50be
00000120: e758 363d 52f8 22be 3fd5 95bd 67b7 f23d
00000130: ed9b 4e3e 8ba9 80bd 4f25 163e b22c cabc
00000140: 24eb 51bd eb03 0cbd 90bf b7bd 139a 533d
00000150: 285a d93b 3b92 e8bd 796f 043e 87dc babd
00000160: 6492 0dbe f01d ab3d 07bc 9fbb 5b97 e2bd
00000170: b147 2cbe 8b96 89bd 877a 22be 3771 e23d
00000180: 93ac 98bc 03eb f43d bf62 cf3d f5ee 113c
00000190: d473 2bbd 8bf8 f5bd f80a 273d 2c67 47be
000001a0: da9b cfbd 93e2 283e 191b 09bd 572f 3b3e
000001b0: 5a8b 063e 4094 18bd 9972 32be 3448 2a3e
000001c0: 0dd5 ce3c 8341 493e 53ce 4ebe d121 533d
000001d0: edfc 36be 3f2b 0dbd c301 4bbe 282b 41be
000001e0: 1e87 1e3b 490b 603e a072 cd3c 2ccb 88bc
000001f0: efc5 553e 41a5 393c 1f8c e6bd f585 113e
00000200: 4aec 193e 7271 3d3e faa7 2d3e 3c16 493e
00000210: 3e66 b1bd 2038 c23c 7d7f b1bd 0201 f5bc
00000220: c43f 373e 763d 29be be8f fb3d 6a35 f0bd
00000230: fd54 04bb 5176 d2bc cb58 b7bd 4aa6 5e3c
00000240: 5618 e7bd ebdc 403e 7c6d 92bd 2aff 0c3e
00000250: dd6a 32bd 0336 35be 68c0 233e 68e4 8abd
00000260: 5ea2 acbd 922f 9d3c 2e55 a23b c4da 8c3d
00000270: a42c 3cbd 6842 83bd fa26 013e 68a2 c83d
00000280: e344 453e 5704 cf3c cb0e 53bd 9309 5cbd
00000290: 60c2 54bd 3f56 9abd 14d0 98bd 55da 87bd
000002a0: 4184 813d a6da b23d 2fc4 303e df92 55be
000002b0: b199 333e aa05 22bd 00eb 5bbe ce74 123e
000002c0: b204 02be 3018 cabd 688f 843d e785 0f3d
000002d0: ccad 0e3e 8749 21be 109b e13d 29f8 f63d
000002e0: 96dc 013e 8f19 a4bd 3acf 363d 9037 7b3d
000002f0: f916 543e 8cd0 0abe 3098 43be 9ab0 50be
00000300: c3cb ab3c 666e 30be b311 32bd e177 dfbd
00000310: 243f 413d 464b 25be 2c8d 003e 13f3 5fbe
00000320: 586c e2bd 69fe 573d ac07 52be e490 7b3d
00000330: b4b0 b4bd 07e6 f0bd 27f5 263e 4ca7 9fbd
00000340: 1058 313d e9cc bbbd ebdb df3d f131 423e
00000350: dfe6 5c3e 792f 0ebe a483 64be 27c6 22be
00000360: 0975 8d3d bccb c23d 1b49 f93d 93ea d03d
00000370: 9413 603e a79b 26be 32ba 25be 6866 9bbd
00000380: 3156 343e 0c2a 22be 362d 2e3e 6219 e53c
00000390: 190a 013e 3d6d 533e 06b6 4f3e d995 5b3e
000003a0: 5d9f 3abd fe66 cdbd b6d2 cc3d ac3a 453e
000003b0: bc29 573c 6433 31bd 6ed9 2ebd 8e87 a5bd
000003c0: b586 e13d 9aae 64be 7db8 343e eac7 07ba
000003d0: 23ff 0dbe 6777 aebd 4254 10be ed6a 38be
000003e0: ddb4 5f3c 8401 69bd e5b1 b6bd 7acf 35bd
000003f0: d460 bdbc 0172 b23d ee2f 2bbe 9ac3 51bc

gnn.convs.1.bias f4 [64]
0.0067577087 -0.0071491254 0.008439022 0.008464987 -0.0037434048 -0.003907041 0.006352679 0.008103753
-0.007158772 -0.008182442 0.008204943 -0.0077684857 0.008464205 -0.0076029366 -0.008308325 -0.00833559
0.002031311 -0.0075075272 -0.0082410555 0.00850532 -0.007708824 0.008173321 0.008510223 -0.00837649
-0.0009543132 0.00697618 -0.0065222685 -0.008198244 -0.008006976 0.008077562 0.007974282 -0.00768231
0.0033230379 -0.007921728 -0.008513734 0.0074176225 0.0020575281 0.0023693969 -0.001969362 -0.007007778
-0.008333507 0.0076843416 -0.005930378 0.008066321 -0.006425018 0.008142568 0.0032885273 -0.0054608975
0.008418735 0.008142701 -0.0003996802 -0.008050206 -0.008495969 0.004053088 -0.0051464806 0.0024199616
-0.0067734374 0.0008882055 -0.0068276804 -0.0023044995 -0.0048708427 0.005245474 0.008516676 0.008036986
00000000: c56f dd3b 3643 eabb d343 0a3c bbb0 0a3c
00000010: e953 75bb a306 80bb 222a d03b 9bc5 043c
00000020: 2294 eabb a60f 06bc 066e 063c c88e febb
00000030: 73ad 0a3c 0e22 f9bb a41f 08bc 0092 08bc
00000040: be1f 053b b401 f6bb 7e05 07bc e659 0b3c
00000050: 4d9a fcbb 65e9 053c 766e 0b3c 8c3d 09bc
00000060: e02a 7aba 7098 e43b c1b8 d5bb ed51 06bc
00000070: b12f 03bc c057 043c 90a6 023c e3bb fbbb
00000080: 53c7 593b 23ca 01bc 307d 0bbc 870f f33b
00000090: 98d7 063b e247 1b3b 6910 01bb 81a1 e5bb
000000a0: 4389 08bc eecc fb3b 9e53 c2bb 9a28 043c
000000b0: f588 d2bb 6868 053c 5584 573b 54f1 b2bb
000000c0: bcee 093c f768 053c 2b8c d1b9 03e5 03bc
000000d0: ad32 0bbc c4cf 843b cfa3 a8bb 3898 1e3b
000000e0: b6f3 ddbb 76d6 683a bcba dfbb 1607 17bb
000000f0: 979b 9fbb 3ae2 ab3b 8789 0b3c 90ad 033c

gnn.convs.1.lin.weight f4 [64, 64]
0.047971707 -0.15464392 -0.1784496 0.107961126 -0.12708172 0.009688944 0.17320253 0.11597886
-0.019275717 0.040462945 0.013353618 0.026355188 0.19497453 -0.12571457 0.19449154 0.015198078
0.21108866 -0.08603283 0.14029463 -0.11301069 -0.17179136 0.16406104 0.081245296 0.21850328
0.09508222 -0.08629878 -0.12050946 0.17610087 -0.035631657 -0.12019728 -0.15323548 -0.13670251
-0.08540696 -0.1761519 0.21438709 0.031009292 0.07693702 -0.0988687 0.013014086 0.15371032
-0.066886775 0.1820993 -0.062942095 -0.07418225 -0.15447128 -0.2071552 0.102602355 -0.13272417
-0.11152194 -0.08318963 -0.16106068 -0.15853852 -0.13605717 0.21718307 0.017693754 -0.07496748
-0.01157921 0.1868214 -0.11912975 0.094739504 -0.037849594 -0.17711346 0.14986543 0.1052973
0.15220596 0.091640286 0.04052298 0.05960321 -0.16772655 0.20137534 -0.1464287 0.14553165
-0.13673945 -0.16285051 0.08173287 0.13566923 -0.06608645 0.053384062 -0.19547573 -0.030397458
0.18404189 0.19494441 -0.076174736 0.07288815 0.19439217 0.0730394 0.032682974 -0.1802288
0.061157774 0.06543521 -0.12878717 0.1002338 -0.14847516 0.19965322 -0.017971002 0.13981193
-0.06301966 -0.10253656 0.15045606 0.12458973 0.20673147 0.05617006 -0.09830682 -0.1342753
-0.21345809 0.0066651558 0.21455778 -0.07845286 -0.04781606 0.14534745 0.18516646 0.051583618
0.009992103 0.20471711 0.18968655 -0.14521684 -0.15073839 -0.05678281 0.078888565 -0.13885233
-0.09978463 0.012267993 -0.06226261 0.13813749 0.12980483 0.1417601 0.10796466 -0.12674119
-0.15808685 -0.14127593 -0.020159295 0.17869428 -0.0396395 0.2075672 0.17004235 -0.19691843
0.10830719 -0.08294315 -0.19821678 0.08409617 -0.06603221 -0.1841009 -0.14402339 0.1671719
-0.043494955 0.17767854 -0.06668566 0.21993205 -0.04615842 0.21342497 0.09250854 -0.15432756
0.103116706 0.09934278 -0.17338501 -0.17895335 0.021043979 0.12576592 0.19287348 -0.05643579
-0.19440158 0.10699899 0.02339615 0.013962816 0.14499266 0.03438121 0.19613355 0.17450263
0.063730836 0.16968498 0.07768363 -0.19697173 0.20238118 0.014965794 -0.018225605 0.18677448
0.19738021 -0.16352212 0.09331958 -0.110565156 -0.0474391 0.054985095 -0.072827846 -0.083073
0.11618018 -0.043627013 0.09008784 0.21611042 0.049702324 0.058832336 0.19837625 -0.07302686
0.008845778 -0.20868762 -0.08414826 -0.00843953 0.20484748 0.13070098 -0.03173007 -0.05038736
0.061412074 -0.08588192 -0.023243269 0.065689944 -0.05867175 0.16675359 0.094195195 -0.014296512
-0.029387726 0.02940077 0.121666424 0.06915462 -0.0508214 0.083963 -0.00067866634 -0.15580899
-0.17598847 0.010022576 0.18075727 -0.07582188 0.14436114 -0.055836752 0.13791588 -0.056129172
-0.08130594 0.07188001 0.122990675 -0.15648174 -0.007551321 0.053420074 0.047423605 0.21945378
-0.18145898 0.19312482 0.12037518 -0.195663 -0.075152025 0.083676815 -0.16578758 0.21084398
-0.07294576 0.091279425 0.049180567 -0.07588445 -0.19735502 0.024269802 -0.16861008 -0.038841285
0.053960297 -0.067621425 0.13202184 -0.20214176 -0.17935279 0.12374693 -0.10428982 0.1859744
00000000: fb7d 443d fa5a 1ebe 7ebb 36be b91a dd3d
00000010: b621 02be 60be 1e3c 015c 313e 5386 ed3d
00000020: 1ce8 9dbc 79bc 253d 22c9 5a3c d6e6 d73c
00000030: 67a7 473e 52bb 00be ca28 473e 5c01 793c
00000040: a027 583e fb31 b0bd 65a9 0f3e 2672 e7bd
00000050: 13ea 2fbe 9eff 273e ef63 a63d 53bf 5f3e
00000060: 78ba c23d 6abd b0bd aacd f6bd c953 343e
00000070: 80f2 11bd fe29 f6bd c3e9 1cbe befb 0bbe
00000080: d8e9 aebd 2a61 34be 4a88 5b3e 3307 fe3c
00000090: 2891 9d3d ac7b cabd 0839 553c 3d66 1d3e
000000a0: effb 88bd 3d78 3a3e c9e7 80bd ddec 97bd
000000b0: b82d 1ebe 7e20 54be 2f21 d23d d8e8 07be
000000c0: 9d65 e4bd 535f aabd 17ed 24be ec57 22be
000000d0: 9252 0bbe 3d65 5e3e 7ef2 903c 8d88 99bd
000000e0: bab6 3dbc 1c4e 3f3e 4cfa f3bd c906 c23d
000000f0: 2d08 1bbd 3b5d 35be 5376 193e 1ca6 d73d
00000100: e1db 1b3e e7ad bb3d 6dfb 253d 7f22 743d
00000110: 82c0 2bbe 5635 4e3e 68f1 15be 4006 153e
00000120: 6d05 0cbe 49c2 26be 9063 a73d e0ec 0a3e
00000130: 5558 87bd 3fa9 5a3d ca2a 48be 1704 f9bc
00000140: 7a75 3c3e 829f 473e 8001 9cbd 6246 953d
00000150: be0e 473e ae95 953d 95de 053d e68d 38be
00000160: 9380 7a3d e502 863d c9e0 03be 6147 cd3d
00000170: df09 18be e571 4c3e ec37 93bc dc2a 0f3e
00000180: 7410 81bd b0fe d1bd 2711 1a3e e628 ff3d
00000190: 6ab1 533e 9412 663d 1655 c9bd 777f 09be
000001a0: c294 5abe 6167 da3b 09b5 5b3e e5ab a0bd
000001b0: c6da 43bd f6d5 143e 479c 3d3e 5849 533d
000001c0: ebb5 233c 5da1 513e 313d 423e b9b3 14be
000001d0: 2a5b 1abe 1795 68bd 5490 a13d 4e2f 0ebe
000001e0: e25b ccbd b1ff 483c 1407 7fbd ea73 0d3e
000001f0: 8feb 043e 8f29 113e 931c dd3d 71c8 01be
00000200: 85e1 21be a3aa 10be 1b25 a5bc a2fb 363e
00000210: 075d 22bd 7f8c 543e 951f 2e3e fca4 49be
00000220: 29d0 dd3d 19de a9bd 57f9 4abe 9d3a ac3d
00000230: e53b 87bd f284 3cbe de7a 13be 1c2f 2b3e
00000240: c427 32bd 5df1 353e 7e92 88bd de35 613e
00000250: 9d10 3dbd 138c 5a3e 1e75 bd3d 0b08 1ebe
00000260: da2e d33d 3a74 cb3d d78b 31be 8c3f 37be
00000270: 6c64 ac3c c8c8 003e a080 453e 3729 67bd
00000280: 3511 47be 4922 db3d 48a9 bf3c 4cc4 643c
00000290: f578 143e 50d3 0c3d 3cd7 483e d1b0 323e
000002a0: 5085 823d e6c1 2d3e 9818 9f3d f5b2 49be
000002b0: 033d 4f3e 1733 753c dd4d 95bc cf41 3f3e
000002c0: 0a1e 4a3e 5872 27be 561e bf3d fc6f e2bd
000002d0: 804f 42bd 0d38 613d c426 95bd 2d22 aabd
000002e0: e0ef ed3d 3db2 32bd f97f b83d 0d4c 5d3e
000002f0: aa94 4b3d 2dfa 703d 2523 4b3e 1b8f 95bd
00000300: e2ed 103c 35b2 55be ec55 acbd f445 0abc
00000310: 8ac3 513e 7ad6 053e 64f7 01bd fa62 4ebd
00000320: 3a8b 7b3d dce2 afbd ab68 bebc 7388 863d
00000330: ca51 70bd 74c1 2a3e 69e9 c03d eb3b 6abc
00000340: 87be f0bc e2d9 f03c 3f2c f93d f0a0 8d3d
00000350: 1a2a 50bd cbf4 ab3d 87e8 31ba 648c 1fbe
00000360: 5236 34be bb35 243c 6f18 393e 8048 9bbd
00000370: 68d3 133e 14b5 64bd d239 0d3e b4e7 65bd
00000380: bb83 a6bd d435 933d 89e2 fb3d c03c 20be
00000390: 1271 f7bb 02cf 5a3d 413f 423d 7eb8 603e
000003a0: 62d0 39be 83c2 453e 4387 f63d e25b 48be
000003b0: 4ee9 99bd c05e ab3d 38c4 29be 7ce7 573e
000003c0: 9664 95bd b5f0 ba3d 9071 493d 4e69 9bbd
000003d0: 6f17 4abe 77d1 c63c 1fa8 2cbe 0a18 1fbd
000003e0: 7905 5d3d 1a7d 8abd bc30 073e 40fe 4ebe
000003f0: 42a8 37be 086f fd3d e795 d5bd 1370 3e3e

gnn.convs.2.bias f4 [64]
0.008144255 -0.0073161363 0.008073113 0.008080346 -0.001961195 -0.0019969624 0.00756576 0.008073494
-0.008153549 -0.008191968 0.008180471 -0.007930805 0.0054870998 -0.006758137 -0.007741769 -0.008360527
-0.0050853128 -0.0031774384 -0.008328708 0.008482031 -0.007285625 0.008488398 0.00849107 -0.008146167
-0.0025119763 0.0065228613 -0.0070584835 -0.008095869 -0.0076594898 0.0069625094 0.008452975 -0.007405043
0.007930108 -0.007727698 0.0033806523 0.007103697 -0.0046479874 -0.002695149 -0.003682556 0.003463617
-0.0084058 0.00834833 0.0014658794 0.007620758 -0.00762636 0.0067195683 -0.0037880726 -0.0061483076
0.008402758 0.008472128 -0.0047168485 -0.008145346 -0.008002887 0.0024923035 -0.008024259 0.0022820728
-0.008433363 0.0056240316 -0.007831051 -0.008470728 -0.005294205 -0.0049536047 0.008514421 0.006415196
00000000: 7b6f 053c 33bc efbb 1745 043c 6d63 043c
00000010: 6487 00bb 78df 02bb 32ea f73b b046 043c
00000020: 7796 05bc 9b37 06bc 6207 063c 35f0 01bc
00000030: 21cd b33b 5d73 ddbb aaae fdbb 98fa 08bc
00000040: b2a2 a6bb 923c 50bb 2275 08bc 37f8 0a3c
00000050: 41bc eebb ec12 0b3c 211e 0b3c 8077 05bc
00000060: f89f 24bb babd d53b da4a e7bb 89a4 04bc
00000070: 75fc fabb c325 e43b 597e 0a3c 01a6 f2bb
00000080: 49ed 013c a138 fdbb ef8d 5d3b 21c6 e83b
00000090: 254e 98bb 19a1 30bb 0a57 71bb dafd 623b
000000a0: 7bb8 09bc 6fc7 083c c022 c03a 8db7 f93b
000000b0: 8be6 f9bb d32f dc3b 5041 78bb be77 c9bb
000000c0: b9ab 093c aece 0a3c cb8f 9abb 0f74 05bc
000000d0: 8a1e 03bc ea55 233b 2e78 03bc d48e 153b
000000e0: 172c 0abc cc49 b83b cf4d 00bc cfc8 0abc
000000f0: 037b adbb d951 a2bb 1280 0b3c 9136 d23b

gnn.convs.2.lin.weight f4 [64, 64]
-0.20307156 -0.09175263 0.109583974 0.20518872 0.08105403 -0.14281431 -0.16650741 0.21652745
-0.05759904 -0.04723941 -0.034986056 0.13134311 0.20219766 0.08342508 0.14886567 0.1970617
-0.2004502 -0.07845572 -0.10577645 0.11798456 0.16193469 0.037892476 0.15445758 -0.19521064
-0.032638155 0.031995825 -0.011113737 0.17416039 -0.07753023 0.18591534 -0.053150654 0.019511217
0.045024093 0.19091447 -0.034775585 -0.0067610396 0.16219617 0.22032917 -0.11235683 0.06885902
0.004168709 -0.19585514 -0.1781967 -0.04767225 -0.040763106 0.04151701 -0.101251364 0.05658272
0.22123374 0.030967755 0.14875072 -0.12834272 0.19824427 -0.04647563 0.22187446 -0.0668092
0.035743043 0.045857053 0.06267682 0.02139226 -0.04484292 -0.05286499 0.16291317 0.20387924
0.19709511 -0.1280487 0.17127313 0.1803184 0.10239065 -0.02580802 -0.15478027 -0.072320625
-0.21200307 0.118471414 0.14159076 0.09255054 -0.21702525 0.06604745 -0.11880464 -0.10184868
-0.17770247 0.17625278 0.10912913 0.18564098 0.19361643 -0.111852884 0.15143622 0.15841706
0.048344076 -0.2180865 -0.04135696 -0.2054256 -0.029561283 0.19032925 -0.013389066 -0.17691466
0.1956258 -0.03481718 0.112817734 -0.051820096 -0.14395973 0.06078394 0.02813338 0.062215243
-0.015637822 0.1739265 -0.20066455 -0.17395452 -0.17200033 -0.06712731 0.046640757 -0.08588894
-0.06250885 -0.11332662 -0.09226594 -0.20119746 0.007815191 0.06137579 -0.08904137 0.00638664
0.17553554 0.132281 -0.21565104 -0.17780252 0.098400794 -0.016575126 0.17023265 0.14789972
-0.14500697 -0.17667192 0.044124205 0.075742275 -0.041356187 0.15052085 0.21620889 -0.01649108
0.08088952 -0.19522382 -0.01729821 -0.16305716 0.18504359 0.07507105 0.12203893 -0.0773674
0.10253674 0.08916354 -0.08976431 -0.030795371 0.12794222 0.061346702 -0.00023562374 0.004385531
-0.14131974 -0.022818753 0.029914057 0.09633526 -0.07101297 0.08638372 0.04121855 0.20535035
0.092313826 -0.20576437 -0.044920836 -0.0069559705 -0.086669534 -0.06963031 0.018220963 0.0031383454
-0.04902871 -0.08059584 -0.08951977 0.08126465 0.07729016 0.047475375 0.16288571 0.026261162
0.20915939 -0.036440585 0.0050733583 -0.10466697 -0.16353342 -0.08481487 0.059190094 0.024354529
0.09728748 0.07753835 -0.202828 0.18443835 -0.052216332 -0.15914394 0.0926597 0.06490792
-0.11414873 0.010509674 0.19048338 0.06589451 -0.0527242 -0.043888696 0.078340076 0.21413334
-0.05204858 0.1993078 -0.07844623 0.15982698 0.02899646 -0.08358427 0.18896724 0.16611193
-0.032792464 -0.19836025 -0.10314125 -0.004310735 -0.17770188 -0.15707563 -0.009456037 -0.045331277
0.015241522 -0.102908544 -0.10139164 0.078249425 0.0187569 0.15018222 -0.11115322 -0.08488457
-0.091708146 -0.13346744 0.12594417 -0.027301855 0.2234498 0.13264757 -0.097838074 -0.04645183
0.102293536 -0.14543033 0.19664094 0.043099876 0.07019745 0.19446617 -0.17870927 -0.06828762
-0.088619694 -0.13362485 0.14933851 0.14965865 0.17207275 0.21481574 -0.09820533 0.009608471
0.06362737 -0.058580466 0.13002251 0.21895696 -0.2171164 -0.036992654 0.13600506 -0.14557505
00000000: fef1 4fbe cee8 bbbd 906d e03d fe1c 523e
00000010: a8ff a53d ea3d 12be eb80 2abe 5fb9 5d3e
00000020: f9ec 6bbd 1d7e 41bd 8a4d 0fbd cf7e 063e
00000030: e70c 4f3e c5da aa3d 3e70 183e 8bca 493e
00000040: d142 4dbe 64ad a0bd 53a1 d8bd e4a1 f13d
00000050: 35d2 253e 2435 1b3d 212a 1e3e 4ce5 47be
00000060: 96af 05bd 0e0e 033d 6416 36bc 1a57 323e
00000070: 2bc8 9ebd 9760 3e3e 80b4 59bd fdd5 9f3c
00000080: 2f6b 383d 157f 433e d870 0ebd b68b ddbb
00000090: c116 263e f89d 613e 561b e6bd f505 8d3d
000000a0: aa99 883b 408e 48be 3279 36be fa43 43bd
000000b0: 37f7 26bd be0d 2a3d e05c cfbd 48c3 673d
000000c0: 198b 623e 17b0 fd3c 1c52 183e 466c 03be
000000d0: 8c00 4b3e 3b5d 3ebd 0f33 633e 43d3 88bd
000000e0: 4c67 123d 9bd4 3b3d b45c 803d d23e af3c
000000f0: 36ad 37bd f688 58bd b6d2 263e b8c5 503e
00000100: 4dd3 493e 331f 03be 3962 2f3e 63a5 383e
00000110: 30b2 d13d 576b d3bc b87e 1ebe d61c 94bd
00000120: 5517 59be 24a1 f23d 2bfd 103e 238b bd3d
00000130: de3b 5ebe e343 873d d94f f3bd 0a96 d0bd
00000140: a3f7 35be 9c7b 343e 187f df3d ab18 3e3e
00000150: 6343 463e 2013 e5bd 1912 1b3e 1538 223e
00000160: 7004 463d 1152 5fbe ea65 29bd 175b 52be
00000170: 812a f2bc ace5 423e d05d 5bbc 1e29 35be
00000180: 2152 483e 769c 0ebd fc0c e73d 4f41 54bd
00000190: 2e6a 13be 95f8 783d f977 e63c 69d5 7e3d
000001a0: e41a 80bc ca19 323e 027b 4dbe 2221 32be
000001b0: db20 30be 0b7a 89bd 610a 3f3d 8ae6 afbd
000001c0: a404 80bd c917 e8bd edf5 bcbd b506 4ebe
000001d0: 490b 003c 2e65 7b3d 525b b6bd 0547 d13b
000001e0: 97bf 333e ac74 073e a0d3 5cbe dd11 36be
000001f0: 5b86 c93d 8fc8 87bc 7851 2e3e 0673 173e
00000200: b57c 14be 7ce9 34be 95bb 343d c41e 9b3d
00000210: 1b65 29bd 2322 1a3e dd65 5d3e 4d18 87bc
00000220: 68a9 a53d c1e8 47be fab4 8dbc 75f8 26be
00000230: 117c 3d3e dabe 993d 8cef f93d cd72 9ebd
00000240: c8fe d13d 609b b63d 5ad6 b7bd 9346 fcbc
00000250: 4903 033e ae46 7b3d c411 77b9 80b4 8f3b
00000260: 1fb6 10be 65ee babc 530e f53c 6c4b c53d
00000270: 3f6f 91bd f3e9 b03d c8d4 283d 5d47 523e
00000280: 080f bd3d e5b3 52be e9fe 37bd e9ee e3bb
00000290: cc7f b1bd 569a 8ebd 2144 953c b3ac 4d3b
000002a0: 54d2 48bd 6f0f a5bd 2456 b7bd 156e a63d
000002b0: 4e4a 9e3d 8a75 423d 83cb 263e a621 d73c
000002c0: e12d 563e b942 15bd 6a3e a63b a35b d6bd
000002d0: 4e75 27be 6bb3 adbd 5071 723d 2683 c73c
000002e0: a93e c73d 6dcc 9e3d 25b2 4fbe 68dd 3c3e
000002f0: cbe0 55bd a1f6 22be 5ec4 bd3d 72ee 843d
00000300: cfc6 e9bd c530 2c3c 130e 433e b3f3 863d
00000310: 55f5 57bd a2c4 33bd c370 a03d c545 5b3e
00000320: e430 55bd 5817 4c3e 6ba8 a0bd afa9 233e
00000330: fc89 ed3c 3b2e abbd a180 413e 3f19 2a3e
00000340: 6451 06bd f31e 4bbe b83b d3bd 1141 8dbb
00000350: 7bf7 35be 6fd8 20be 7eed 1abc 4aad 39bd
00000360: 94b7 793c b7c1 d2bd 6ca6 cfbd 3c41 a03d
00000370: 12a8 993c 5ec9 193e 4da4 e3bd f6d7 adbd
00000380: 7bd1 bbbd b0ab 08be 82f7 003e 24a8 dfbc
00000390: 06d0 643e c4d4 073e 545f c8bd 4644 3ebd
000003a0: 467f d13d b0eb 14be 3e5c 493e 7f89 303d
000003b0: aec3 8f3d 2422 473e 90ff 36be 61da 8bbd
000003c0: 3e7e b5bd f4d4 08be 32ec 183e 1e40 193e
000003d0: d733 303e a8f8 5b3e e01f c9bd d96c 1d3c
000003e0: 114f 823d 12f2 6fbd 9f24 053e 4136 603e
000003f0: c353 5ebe 9c85 17bd e944 0b3e a011 15be

gnn.norms.0.weight f4 [64]
1.0072576 0.9921149 1.0021099 1.0081155 0.997783 0.99217856 1.00812 1.0080981
1.007941 0.9946489 0.99596626 0.9923123 0.9975582 0.9951641 0.99185807 0.99151635
1.007403 0.9926402 0.9946601 1.0080348 0.9918641 1.0084188 1.0032482 0.9915786
1.0068055 1.0069139 0.9922243 0.9916374 1.0080235 1.0083687 1.0079774 0.99293303
1.0082055 1.0045704 1.0053619 1.0081593 1.0002849 1.0031459 1.0072919 0.9917686
0.9918342 1.0080379 0.9980413 1.00812 0.9918217 1.0077697 1.001877 0.9971332
1.0070329 0.99210995 1.0005558 0.99170613 0.99155277 1.0073497 0.9970254 0.9955337
0.99255705 1.0065665 0.99212396 0.99394894 0.99389195 1.004354 1.0084394 1.0082722
00000000: d1ed 803f 3efb 7d3f 2345 803f ee09 813f
00000010: b56e 7f3f 6aff 7d3f 130a 813f 5c09 813f
00000020: 3604 813f 4fa1 7e3f a5f7 7e3f 2e08 7e3f
00000030: f95f 7f3f 13c3 7e3f 69ea 7d3f 04d4 7d3f
00000040: 95f2 803f ab1d 7e3f 0ba2 7e3f 4907 813f
00000050: ceea 7d3f de13 813f 706a 803f 18d8 7d3f
00000060: 01df 803f 8ee2 803f 6902 7e3f f3db 7d3f
00000070: ea06 813f 3a12 813f 6705 813f dc30 7e3f
00000080: e10c 813f c395 803f b3af 803f 5d0b 813f
00000090: 5609 803f 1667 803f f1ee 803f 8ce4 7d3f
000000a0: d9e8 7d3f 6307 813f a27f 7f3f 130a 813f
000000b0: 07e8 7d3f 99fe 803f 813d 803f 1f44 7f3f
000000c0: 74e6 803f ebfa 7d3f 3612 803f 74e0 7d3f
000000d0: 67d6 7d3f d6f0 803f 0e3d 7f3f 4cdb 7e3f
000000e0: 3818 7e3f 2cd7 803f d6fb 7d3f 7073 7e3f
000000f0: b46f 7e3f ac8e 803f 8b14 813f 100f 813f

gnn.norms.0.bias f4 [64]
0.006951583 -0.0073549673 0.0043026293 0.0080822995 0.003975539 -0.003829271 0.008046468 0.007906709
0.007901006 -0.0054082214 0.0071653193 -0.00819006 -0.0017503526 -0.0035182657 -0.0079976795 -0.008519916
0.00781364 -0.007228576 -0.007652447 0.008414511 -0.008162552 0.008470431 0.0048258035 -0.008514038
0.006824424 0.007301324 -0.007906969 -0.008397993 0.00790569 0.008021607 0.007926277 -0.0073601026
0.008134148 0.0046168184 0.003997914 0.008116193 -0.0002972131 0.0027797495 0.007640074 -0.008303072
-0.008244612 0.0077294954 -0.0048348457 0.008016167 -0.008160774 0.0077797268 -0.0028935398 -0.0008131255
0.006956557 -0.007969166 -0.0022329364 -0.008471394 -0.008387661 0.0068320045 -0.00431577 -0.0031266348
-0.007523719 0.0070523564 -0.0076576574 -0.0016158542 -0.006334548 -0.0047886684 0.008400937 0.0081947595
00000000: 1bca e33b f001 f1bb 12fd 8c3b 9f6b 043c
00000010: 3d45 823b 82f4 7abb 55d5 033c 248b 013c
00000020: 3973 013c 7337 b1bb 0ecb ea3b 9a2f 06bc
00000030: 166c e5ba b492 66bb b308 03bc 1e97 0bbc
00000040: c804 003c b1dd ecbb 61c1 fabb 04dd 093c
00000050: 39bc 05bc 90c7 0a3c c621 9e3b 777e 0bbc
00000060: 6b9f df3b f23f ef3b 3b8c 01bc bc97 09bc
00000070: de86 013c 0f6d 033c 37dd 013c 042d f1bb
00000080: 1745 053c ae48 973b ef00 833b c8f9 043c
00000090: 44d3 9bb9 752c 363b 9659 fa3b 9c09 08bc
000000a0: 6914 07bc b547 fd3b a06d 9ebb 3e56 033c
000000b0: c4b4 05bc 14ed fe3b 8ba1 3dbb ee27 55ba
000000c0: d4f3 e33b 1b91 02bc 7556 12bb 9acb 0abc
000000d0: 666c 09bc 02df df3b 4e6b 8dbb 3ae8 4cbb
000000e0: 8889 f6bb 7417 e73b 16ed fabb 12cb d3ba
000000f0: 0a92 cfbb 43ea 9cbb 15a4 093c 5043 063c

gnn.norms.1.weight f4 [64]
1.0066248 0.99247503 1.0084796 1.0084981 0.99727196 0.9951451 0.99259716 1.0082463
0.9922369 0.9919549 1.0083312 1.004371 0.9918414 0.9924594 0.9920254 0.9921186
1.0015221 0.99267346 0.99173313 1.0081441 0.9925692 1.0081481 1.0085223 0.99183667
0.99839485 1.0064547 0.9933259 0.991948 0.9924262 1.0068144 1.008318 0.9926018
1.003764 0.9922309 0.9915233 1.007333 1.0021621 1.0035994 0.9917661 0.99301046
0.99178606 1.0080285 0.99475956 1.007505 1.0080647 1.0080756 0.999796 0.99496394
1.0079345 1.0083641 0.99915534 0.9918772 0.9915109 1.0059464 0.99525344 1.0036192
1.0076199 0.9940046 0.9932111 0.9964849 0.99430615 0.9968111 1.0084969 1.0081545
00000000: 15d9 803f d812 7e3f dc15 813f 7716 813f
00000010: 374d 7f3f d4c1 7e3f d91a 7e3f 370e 813f
00000020: 3d03 7e3f c2f0 7d3f ff10 813f 3b8f 803f
00000030: 51e9 7d3f d211 7e3f 60f5 7d3f 7cfb 7d3f
00000040: e031 803f d91f 7e3f 39e2 7d3f de0a 813f
00000050: 0419 7e3f ff0a 813f 4217 813f 02e9 7d3f
00000060: ce96 7f3f 82d3 803f 9b4a 7e3f 4ef0 7d3f
00000070: a50f 7e3f 4bdf 803f 9010 813f 271b 7e3f
00000080: 577b 803f d802 7e3f 79d4 7d3f 4af0 803f
00000090: d946 803f f275 803f 62e4 7d3f ef35 7e3f
000000a0: b1e5 7d3f 1407 813f 90a8 7e3f edf5 803f
000000b0: 4408 813f 9f08 813f a1f2 7f3f f5b5 7e3f
000000c0: ff03 813f 1312 813f a5c8 7f3f aaeb 7d3f
000000d0: a9d3 7d3f dac2 803f eec8 7e3f 9876 803f
000000e0: b0f9 803f 1677 7e3f 1543 7e3f a219 7f3f
000000f0: d98a 7e3f 032f 7f3f 6d16 813f 350b 813f

gnn.norms.1.bias f4 [64]
0.006792983 -0.007494911 0.008420604 0.0084490385 -0.0012832975 -0.0049096053 0.006270335 0.008113988
-0.00784505 -0.008237787 0.0081782 -0.007915091 0.008203355 -0.0075798896 -0.008306754 -0.0083749965
0.001671817 -0.0075689447 -0.008263312 0.008501591 -0.007891828 0.008113018 0.00850413 -0.00839121
0.0016877943 0.0066060205 -0.00718218 -0.008230896 -0.008138732 0.0069508404 0.008041065 -0.007586262
0.0033581355 -0.008028642 -0.008470671 0.0073313764 0.002635104 0.0036374761 -0.007991629 -0.00689476
-0.008363952 0.007848788 -0.005431069 0.0077921124 -0.008100762 0.00807781 0.0026027577 -0.0053090956
0.008405839 0.00816576 -0.0010898019 -0.0081812255 -0.008498721 0.005164982 -0.004792989 0.004367738
-0.007853015 -0.00096749316 -0.006672655 -0.0025024365 -0.0052091023 0.0064786477 0.008518553 0.007981521
00000000: ac97 de3b df97 f5bb 93f6 093c d66d 0a3c
00000010: 5234 a8ba c1e0 a0bb 6277 cd3b 88f0 043c
00000020: 8688 00bc c8f7 06bc dbfd 053c 4cae 01bc
00000030: 5d67 063c b960 f8bb 0d19 08bc 4837 09bc
00000040: df20 db3a e904 f8bb d862 07bc 424a 0b3c
00000050: ba4c 01bc 77ec 043c e854 0b3c 497b 09bc
00000060: fb38 dd3a 5177 d83b 7e58 ebbb e1da 06bc
00000070: 5158 05bc e0c3 e33b acbe 033c 2e96 f8bb
00000080: 2a14 5c3b 918a 03bc 92c8 0abc 0b3c f03b
00000090: b6b1 2c3b b962 6e3b 52ef 02bc 70ed e1bb
000000a0: f508 09bc 3498 003c 1cf7 b1bb fa54 ff3b
000000b0: 0fb9 04bc ca58 043c 0793 2a3b ecf7 adbb
000000c0: a5b8 093c aec9 053c afd7 8eba 8c0a 06bc
000000d0: 383e 0bbc 023f a93b 820e 9dbb 3e1f 8f3b
000000e0: efa9 00bc 5e9f 7dba 4aa6 dabb ebff 23bb
000000f0: 1eb1 aabb d64a d43b 6791 0b3c edc4 023c

gnn.norms.2.weight f4 [64]
1.0081933 0.9925618 1.0082784 1.0081061 0.9975653 0.998261 1.0074712 1.0082891
0.991887 0.99221605 1.0081645 1.0082556 1.0078288 0.99331 0.9941086 0.991647
0.9953682 0.9994476 0.991929 1.0084554 1.0077571 0.9926637 0.99201775 1.0082926
0.99757 1.0063542 1.0079656 0.99247015 1.0085104 1.005034 1.0084399 0.9926935
1.0080538 0.99551445 1.0018595 1.0068411 0.9943909 0.99767745 0.9992448 1.0031286
0.991637 1.0084808 0.99909645 1.0077136 0.9927162 1.0066303 1.0042788 0.9940343
0.99182284 1.0085233 0.9953776 1.0048714 1.0082515 1.0019407 0.99205685 1.0010763
0.99164236 1.0055171 0.9922209 0.9915959 0.9944687 0.9952988 0.9937515 1.0063224
00000000: 7a0c 813f 8818 7e3f 440f 813f 9f09 813f
00000010: 7160 7f3f 088e 7f3f d1f4 803f 9e0f 813f
00000020: 4eec 7d3f df01 7e3f 890b 813f 850e 813f
00000030: 8900 813f 9049 7e3f e77d 7e3f 94dc 7d3f
00000040: 73d0 7e3f ccdb 7f3f 0fef 7d3f 1115 813f
00000050: 2ffe 803f 351f 7e3f e0f4 7d3f bb0f 813f
00000060: bf60 7f3f 37d0 803f 0405 813f 8612 7e3f
00000070: de16 813f f4a4 803f 8f14 813f 2921 7e3f
00000080: e807 813f 09da 7e3f ef3c 803f 2be0 803f
00000090: 6790 7e3f ca67 7f3f 82ce 7f3f 8566 803f
000000a0: ecdb 7d3f e615 813f c9c4 7f3f c2fc 803f
000000b0: a622 7e3f 43d9 803f 358c 803f 0879 7e3f
000000c0: 1ae8 7d3f 4b17 813f 11d1 7e3f a09f 803f
000000d0: 630e 813f 983f 803f 70f7 7d3f 4523 803f
000000e0: 46dc 7d3f c9b4 803f 3002 7e3f 3bd9 7d3f
000000f0: 8095 7e3f e7cb 7e3f 8066 7e3f 2ccf 803f

gnn.norms.2.bias f4 [64]
0.00815199 -0.0074427463 0.008073042 0.008085325 -0.0023899553 -0.0016404368 0.0074820565 0.008120048
-0.008281727 -0.008202288 0.008138451 -0.007963142 0.007842975 -0.006773007 -0.0079366565 -0.008377209
-0.004484781 -0.0035473963 -0.00833642 0.008488627 -0.007781621 0.008443404 0.008501709 -0.008240636
-0.0023640206 0.0064952434 -0.0076859077 -0.008163063 -0.00797483 0.00509175 0.008453629 -0.007488716
0.007943994 -0.007815417 0.0026638694 0.0069839708 -0.0053430228 -0.002293968 -0.003109971 0.0033503482
-0.008417404 0.00833526 -0.0006982191 0.007694472 -0.0076777055 0.006639185 -0.0052747433 -0.0063436264
0.00835882 0.00848305 -0.0046473397 -0.008237512 -0.008388488 0.0023230922 -0.007999837 0.0017876968
-0.008442689 0.0056586987 -0.007825467 -0.008486878 -0.005469248 -0.004569138 0.008513857 0.0066123125
00000000: ed8f 053c 48e2 f3bb cb44 043c 5078 043c
00000010: cca0 1cbb ed03 d7ba 0a2c f53b f309 053c
00000020: 15b0 07bc e462 06bc 2357 053c d777 02bc
00000030: d27f 003c 1af0 ddbb c008 02bc 9040 09bc
00000040: 12f5 92bb 6f7b 68bb 7b95 08bc e213 0b3c
00000050: f8fc febb 3456 0a3c c14a 0b3c bc03 07bc
00000060: afed 1abb 0dd6 d43b 11da fbbb 5ebe 05bc
00000070: dda8 02bc b2d8 a63b 1781 0a3c e763 f5bb
00000080: 8727 023c 3c0c 00bc 5094 2e3b cbd9 e43b
00000090: 8614 afbb 6656 16bb a8d0 4bbb 8491 5b3b
000000a0: 27e9 09bc 9d90 083c b108 37ba e921 fc3b
000000b0: 4395 fbbb 858d d93b c1d7 acbb 32de cfbb
000000c0: 6ff3 083c 7efc 0a3c b648 98bb a1f6 06bc
000000d0: de6f 09bc 053f 183b c011 03bc 2751 ea3a
000000e0: 3453 0abc 9b6c b93b 6336 00bc 8c0c 0bbc
000000f0: 6137 b3bb b5b8 95bb b47d 0b3c 19ac d83b
